…
snapshot_prefix: "resnet50/train_output/ctpn_resnet50"
solver_mode: GPU
average_loss: 100
I0809 14:29:55.926625 15212 solver.cpp:86] Creating training net from train_net file: resnet50/models/train.prototxt
I0809 14:29:55.930779 15212 net.cpp:50] Initializing net from parameters: 
name: "resnet50"
state {
  phase: TRAIN
}
layer {
  name: "input_data"
  type: "Python"
  top: "data"
  top: "im_info"
  top: "gt_boxes"
  top: "side_pos"
  python_param {
    module: "layers.input_data_layer"
    layer: "InputDataLayer"
    param_str: "\'train_images\': \'train_images\'"
  }
}
layer {
  name: "conv1"
  type: "Convolution"
  bottom: "data"
  top: "conv1"
  convolution_param {
    num_output: 64
    pad: 3
    kernel_size: 7
    stride: 2
  }
}
layer {
  name: "bn_conv1"
  type: "BatchNorm"
  bottom: "conv1"
  top: "conv1"
  batch_norm_param {
    use_global_stats: true
  }
}
layer {
  name: "scale_conv1"
  type: "Scale"
  bottom: "conv1"
  top: "conv1"
  scale_param {
    bias_term: true
  }
}
layer {
  name: "conv1_relu"
  type: "ReLU"
  bottom: "conv1"
  top: "conv1"
}
layer {
  name: "pool1"
  type: "Pooling"
  bottom: "conv1"
  top: "pool1"
  pooling_param {
    pool: MAX
    kernel_size: 3
    stride: 2
  }
}
layer {
  name: "res2a_branch1"
  type: "Convolution"
  bottom: "pool1"
  top: "res2a_branch1"
  convolution_param {
    num_output: 256
    bias_term: false
    pad: 0
    kernel_size: 1
    stride: 1
  }
}
layer {
  name: "bn2a_branch1"
  type: "BatchNorm"
  bottom: "res2a_branch1"
  top: "res2a_branch1"
  batch_norm_param {
    use_global_stats: true
  }
}
layer {
  name: "scale2a_branch1"
  type: "Scale"
  bottom: "res2a_branch1"
  top: "res2a_branch1"
  scale_param {
    bias_term: true
  }
}
layer {
  name: "res2a_branch2a"
  type: "Convolution"
  bottom: "pool1"
  top: "res2a_branch2a"
  convolution_param {
    num_output: 64
    bias_term: false
    pad: 0
    kernel_size: 1
    stride: 1
  }
}
layer {
  name: "bn2a_branch2a"
  type: "BatchNorm"
  bottom: "res2a_branch2a"
  top: "res2a_branch2a"
  batch_norm_param {
    use_global_stats: true
  }
}
layer {
  name: "scale2a_branch2a"
  type: "Scale"
  bottom: "res2a_branch2a"
  top: "res2a_branch2a"
  scale_param {
    bias_term: true
  }
}
layer {
  name: "res2a_branch2a_relu"
  type: "ReLU"
  bottom: "res2a_branch2a"
  top: "res2a_branch2a"
}
layer {
  name: "res2a_branch2b"
  type: "Convolution"
  bottom: "res2a_branch2a"
  top: "res2a_branch2b"
  convolution_param {
    num_output: 64
    bias_term: false
    pad: 1
    kernel_size: 3
    stride: 1
  }
}
layer {
  name: "bn2a_branch2b"
  type: "BatchNorm"
  bottom: "res2a_branch2b"
  top: "res2a_branch2b"
  batch_norm_param {
    use_global_stats: true
  }
}
layer {
  name: "scale2a_branch2b"
  type: "Scale"
  bottom: "res2a_branch2b"
  top: "res2a_branch2b"
  scale_param {
    bias_term: true
  }
}
layer {
  name: "res2a_branch2b_relu"
  type: "ReLU"
  bottom: "res2a_branch2b"
  top: "res2a_branch2b"
}
layer {
  name: "res2a_branch2c"
  type: "Convolution"
  bottom: "res2a_branch2b"
  top: "res2a_branch2c"
  convolution_param {
    num_output: 256
    bias_term: false
    pad: 0
    kernel_size: 1
    stride: 1
  }
}
layer {
  name: "bn2a_branch2c"
  type: "BatchNorm"
  bottom: "res2a_branch2c"
  top: "res2a_branch2c"
  batch_norm_param {
    use_global_stats: true
  }
}
layer {
  name: "scale2a_branch2c"
  type: "Scale"
  bottom: "res2a_branch2c"
  top: "res2a_branch2c"
  scale_param {
    bias_term: true
  }
}
layer {
  name: "res2a"
  type: "Eltwise"
  bottom: "res2a_branch1"
  bottom: "res2a_branch2c"
  top: "res2a"
}
layer {
  name: "res2a_relu"
  type: "ReLU"
  bottom: "res2a"
  top: "res2a"
}
layer {
  name: "res2b_branch2a"
  type: "Convolution"
  bottom: "res2a"
  top: "res2b_branch2a"
  convolution_param {
    num_output: 64
    bias_term: false
    pad: 0
    kernel_size: 1
    stride: 1
  }
}
layer {
  name: "bn2b_branch2a"
  type: "BatchNorm"
  bottom: "res2b_branch2a"
  top: "res2b_branch2a"
  batch_norm_param {
    use_global_stats: true
  }
}
layer {
  name: "scale2b_branch2a"
  type: "Scale"
  bottom: "res2b_branch2a"
  top: "res2b_branch2a"
  scale_param {
    bias_term: true
  }
}
layer {
  name: "res2b_branch2a_relu"
  type: "ReLU"
  bottom: "res2b_branch2a"
  top: "res2b_branch2a"
}
layer {
  name: "res2b_branch2b"
  type: "Convolution"
  bottom: "res2b_branch2a"
  top: "res2b_branch2b"
  convolution_param {
    num_output: 64
    bias_term: false
    pad: 1
    kernel_size: 3
    stride: 1
  }
}
layer {
  name: "bn2b_branch2b"
  type: "BatchNorm"
  bottom: "res2b_branch2b"
  top: "res2b_branch2b"
  batch_norm_param {
    use_global_stats: true
  }
}
layer {
  name: "scale2b_branch2b"
  type: "Scale"
  bottom: "res2b_branch2b"
  top: "res2b_branch2b"
  scale_param {
    bias_term: true
  }
}
layer {
  name: "res2b_branch2b_relu"
  type: "ReLU"
  bottom: "res2b_branch2b"
  top: "res2b_branch2b"
}
layer {
  name: "res2b_branch2c"
  type: "Convolution"
  bottom: "res2b_branch2b"
  top: "res2b_branch2c"
  convolution_param {
    num_output: 256
    bias_term: false
    pad: 0
    kernel_size: 1
    stride: 1
  }
}
layer {
  name: "bn2b_branch2c"
  type: "BatchNorm"
  bottom: "res2b_branch2c"
  top: "res2b_branch2c"
  batch_norm_param {
    use_global_stats: true
  }
}
layer {
  name: "scale2b_branch2c"
  type: "Scale"
  bottom: "res2b_branch2c"
  top: "res2b_branch2c"
  scale_param {
    bias_term: true
  }
}
layer {
  name: "res2b"
  type: "Eltwise"
  bottom: "res2a"
  bottom: "res2b_branch2c"
  top: "res2b"
}
layer {
  name: "res2b_relu"
  type: "ReLU"
  bottom: "res2b"
  top: "res2b"
}
layer {
  name: "res2c_branch2a"
  type: "Convolution"
  bottom: "res2b"
  top: "res2c_branch2a"
  convolution_param {
    num_output: 64
    bias_term: false
    pad: 0
    kernel_size: 1
    stride: 1
  }
}
layer {
  name: "bn2c_branch2a"
  type: "BatchNorm"
  bottom: "res2c_branch2a"
  top: "res2c_branch2a"
  batch_norm_param {
    use_global_stats: true
  }
}
layer {
  name: "scale2c_branch2a"
  type: "Scale"
  bottom: "res2c_branch2a"
  top: "res2c_branch2a"
  scale_param {
    bias_term: true
  }
}
layer {
  name: "res2c_branch2a_relu"
  type: "ReLU"
  bottom: "res2c_branch2a"
  top: "res2c_branch2a"
}
layer {
  name: "res2c_branch2b"
  type: "Convolution"
  bottom: "res2c_branch2a"
  top: "res2c_branch2b"
  convolution_param {
    num_output: 64
    bias_term: false
    pad: 1
    kernel_size: 3
    stride: 1
  }
}
layer {
  name: "bn2c_branch2b"
  type: "BatchNorm"
  bottom: "res2c_branch2b"
  top: "res2c_branch2b"
  batch_norm_param {
    use_global_stats: true
  }
}
layer {
  name: "scale2c_branch2b"
  type: "Scale"
  bottom: "res2c_branch2b"
  top: "res2c_branch2b"
  scale_param {
    bias_term: true
  }
}
layer {
  name: "res2c_branch2b_relu"
  type: "ReLU"
  bottom: "res2c_branch2b"
  top: "res2c_branch2b"
}
layer {
  name: "res2c_branch2c"
  type: "Convolution"
  bottom: "res2c_branch2b"
  top: "res2c_branch2c"
  convolution_param {
    num_output: 256
    bias_term: false
    pad: 0
    kernel_size: 1
    stride: 1
  }
}
layer {
  name: "bn2c_branch2c"
  type: "BatchNorm"
  bottom: "res2c_branch2c"
  top: "res2c_branch2c"
  batch_norm_param {
    use_global_stats: true
  }
}
layer {
  name: "scale2c_branch2c"
  type: "Scale"
  bottom: "res2c_branch2c"
  top: "res2c_branch2c"
  scale_param {
    bias_term: true
  }
}
layer {
  name: "res2c"
  type: "Eltwise"
  bottom: "res2b"
  bottom: "res2c_branch2c"
  top: "res2c"
}
layer {
  name: "res2c_relu"
  type: "ReLU"
  bottom: "res2c"
  top: "res2c"
}
layer {
  name: "res3a_branch1"
  type: "Convolution"
  bottom: "res2c"
  top: "res3a_branch1"
  convolution_param {
    num_output: 512
    bias_term: false
    pad: 0
    kernel_size: 1
    stride: 2
  }
}
layer {
  name: "bn3a_branch1"
  type: "BatchNorm"
  bottom: "res3a_branch1"
  top: "res3a_branch1"
  batch_norm_param {
    use_global_stats: true
  }
}
layer {
  name: "scale3a_branch1"
  type: "Scale"
  bottom: "res3a_branch1"
  top: "res3a_branch1"
  scale_param {
    bias_term: true
  }
}
layer {
  name: "res3a_branch2a"
  type: "Convolution"
  bottom: "res2c"
  top: "res3a_branch2a"
  convolution_param {
    num_output: 128
    bias_term: false
    pad: 0
    kernel_size: 1
    stride: 2
  }
}
layer {
  name: "bn3a_branch2a"
  type: "BatchNorm"
  bottom: "res3a_branch2a"
  top: "res3a_branch2a"
  batch_norm_param {
    use_global_stats: true
  }
}
layer {
  name: "scale3a_branch2a"
  type: "Scale"
  bottom: "res3a_branch2a"
  top: "res3a_branch2a"
  scale_param {
    bias_term: true
  }
}
layer {
  name: "res3a_branch2a_relu"
  type: "ReLU"
  bottom: "res3a_branch2a"
  top: "res3a_branch2a"
}
layer {
  name: "res3a_branch2b"
  type: "Convolution"
  bottom: "res3a_branch2a"
  top: "res3a_branch2b"
  convolution_param {
    num_output: 128
    bias_term: false
    pad: 1
    kernel_size: 3
    stride: 1
  }
}
layer {
  name: "bn3a_branch2b"
  type: "BatchNorm"
  bottom: "res3a_branch2b"
  top: "res3a_branch2b"
  batch_norm_param {
    use_global_stats: true
  }
}
layer {
  name: "scale3a_branch2b"
  type: "Scale"
  bottom: "res3a_branch2b"
  top: "res3a_branch2b"
  scale_param {
    bias_term: true
  }
}
layer {
  name: "res3a_branch2b_relu"
  type: "ReLU"
  bottom: "res3a_branch2b"
  top: "res3a_branch2b"
}
layer {
  name: "res3a_branch2c"
  type: "Convolution"
  bottom: "res3a_branch2b"
  top: "res3a_branch2c"
  convolution_param {
    num_output: 512
    bias_term: false
    pad: 0
    kernel_size: 1
    stride: 1
  }
}
layer {
  name: "bn3a_branch2c"
  type: "BatchNorm"
  bottom: "res3a_branch2c"
  top: "res3a_branch2c"
  batch_norm_param {
    use_global_stats: true
  }
}
layer {
  name: "scale3a_branch2c"
  type: "Scale"
  bottom: "res3a_branch2c"
  top: "res3a_branch2c"
  scale_param {
    bias_term: true
  }
}
layer {
  name: "res3a"
  type: "Eltwise"
  bottom: "res3a_branch1"
  bottom: "res3a_branch2c"
  top: "res3a"
}
layer {
  name: "res3a_relu"
  type: "ReLU"
  bottom: "res3a"
  top: "res3a"
}
layer {
  name: "res3b_branch2a"
  type: "Convolution"
  bottom: "res3a"
  top: "res3b_branch2a"
  convolution_param {
    num_output: 128
    bias_term: false
    pad: 0
    kernel_size: 1
    stride: 1
  }
}
layer {
  name: "bn3b_branch2a"
  type: "BatchNorm"
  bottom: "res3b_branch2a"
  top: "res3b_branch2a"
  batch_norm_param {
    use_global_stats: true
  }
}
layer {
  name: "scale3b_branch2a"
  type: "Scale"
  bottom: "res3b_branch2a"
  top: "res3b_branch2a"
  scale_param {
    bias_term: true
  }
}
layer {
  name: "res3b_branch2a_relu"
  type: "ReLU"
  bottom: "res3b_branch2a"
  top: "res3b_branch2a"
}
layer {
  name: "res3b_branch2b"
  type: "Convolution"
  bottom: "res3b_branch2a"
  top: "res3b_branch2b"
  convolution_param {
    num_output: 128
    bias_term: false
    pad: 1
    kernel_size: 3
    stride: 1
  }
}
layer {
  name: "bn3b_branch2b"
  type: "BatchNorm"
  bottom: "res3b_branch2b"
  top: "res3b_branch2b"
  batch_norm_param {
    use_global_stats: true
  }
}
layer {
  name: "scale3b_branch2b"
  type: "Scale"
  bottom: "res3b_branch2b"
  top: "res3b_branch2b"
  scale_param {
    bias_term: true
  }
}
layer {
  name: "res3b_branch2b_relu"
  type: "ReLU"
  bottom: "res3b_branch2b"
  top: "res3b_branch2b"
}
layer {
  name: "res3b_branch2c"
  type: "Convolution"
  bottom: "res3b_branch2b"
  top: "res3b_branch2c"
  convolution_param {
    num_output: 512
    bias_term: false
    pad: 0
    kernel_size: 1
    stride: 1
  }
}
layer {
  name: "bn3b_branch2c"
  type: "BatchNorm"
  bottom: "res3b_branch2c"
  top: "res3b_branch2c"
  batch_norm_param {
    use_global_stats: true
  }
}
layer {
  name: "scale3b_branch2c"
  type: "Scale"
  bottom: "res3b_branch2c"
  top: "res3b_branch2c"
  scale_param {
    bias_term: true
  }
}
layer {
  name: "res3b"
  type: "Eltwise"
  bottom: "res3a"
  bottom: "res3b_branch2c"
  top: "res3b"
}
layer {
  name: "res3b_relu"
  type: "ReLU"
  bottom: "res3b"
  top: "res3b"
}
layer {
  name: "res3c_branch2a"
  type: "Convolution"
  bottom: "res3b"
  top: "res3c_branch2a"
  convolution_param {
    num_output: 128
    bias_term: false
    pad: 0
    kernel_size: 1
    stride: 1
  }
}
layer {
  name: "bn3c_branch2a"
  type: "BatchNorm"
  bottom: "res3c_branch2a"
  top: "res3c_branch2a"
  batch_norm_param {
    use_global_stats: true
  }
}
layer {
  name: "scale3c_branch2a"
  type: "Scale"
  bottom: "res3c_branch2a"
  top: "res3c_branch2a"
  scale_param {
    bias_term: true
  }
}
layer {
  name: "res3c_branch2a_relu"
  type: "ReLU"
  bottom: "res3c_branch2a"
  top: "res3c_branch2a"
}
layer {
  name: "res3c_branch2b"
  type: "Convolution"
  bottom: "res3c_branch2a"
  top: "res3c_branch2b"
  convolution_param {
    num_output: 128
    bias_term: false
    pad: 1
    kernel_size: 3
    stride: 1
  }
}
layer {
  name: "bn3c_branch2b"
  type: "BatchNorm"
  bottom: "res3c_branch2b"
  top: "res3c_branch2b"
  batch_norm_param {
    use_global_stats: true
  }
}
layer {
  name: "scale3c_branch2b"
  type: "Scale"
  bottom: "res3c_branch2b"
  top: "res3c_branch2b"
  scale_param {
    bias_term: true
  }
}
layer {
  name: "res3c_branch2b_relu"
  type: "ReLU"
  bottom: "res3c_branch2b"
  top: "res3c_branch2b"
}
layer {
  name: "res3c_branch2c"
  type: "Convolution"
  bottom: "res3c_branch2b"
  top: "res3c_branch2c"
  convolution_param {
    num_output: 512
    bias_term: false
    pad: 0
    kernel_size: 1
    stride: 1
  }
}
layer {
  name: "bn3c_branch2c"
  type: "BatchNorm"
  bottom: "res3c_branch2c"
  top: "res3c_branch2c"
  batch_norm_param {
    use_global_stats: true
  }
}
layer {
  name: "scale3c_branch2c"
  type: "Scale"
  bottom: "res3c_branch2c"
  top: "res3c_branch2c"
  scale_param {
    bias_term: true
  }
}
layer {
  name: "res3c"
  type: "Eltwise"
  bottom: "res3b"
  bottom: "res3c_branch2c"
  top: "res3c"
}
layer {
  name: "res3c_relu"
  type: "ReLU"
  bottom: "res3c"
  top: "res3c"
}
layer {
  name: "res3d_branch2a"
  type: "Convolution"
  bottom: "res3c"
  top: "res3d_branch2a"
  convolution_param {
    num_output: 128
    bias_term: false
    pad: 0
    kernel_size: 1
    stride: 1
  }
}
layer {
  name: "bn3d_branch2a"
  type: "BatchNorm"
  bottom: "res3d_branch2a"
  top: "res3d_branch2a"
  batch_norm_param {
    use_global_stats: true
  }
}
layer {
  name: "scale3d_branch2a"
  type: "Scale"
  bottom: "res3d_branch2a"
  top: "res3d_branch2a"
  scale_param {
    bias_term: true
  }
}
layer {
  name: "res3d_branch2a_relu"
  type: "ReLU"
  bottom: "res3d_branch2a"
  top: "res3d_branch2a"
}
layer {
  name: "res3d_branch2b"
  type: "Convolution"
  bottom: "res3d_branch2a"
  top: "res3d_branch2b"
  convolution_param {
    num_output: 128
    bias_term: false
    pad: 1
    kernel_size: 3
    stride: 1
  }
}
layer {
  name: "bn3d_branch2b"
  type: "BatchNorm"
  bottom: "res3d_branch2b"
  top: "res3d_branch2b"
  batch_norm_param {
    use_global_stats: true
  }
}
layer {
  name: "scale3d_branch2b"
  type: "Scale"
  bottom: "res3d_branch2b"
  top: "res3d_branch2b"
  scale_param {
    bias_term: true
  }
}
layer {
  name: "res3d_branch2b_relu"
  type: "ReLU"
  bottom: "res3d_branch2b"
  top: "res3d_branch2b"
}
layer {
  name: "res3d_branch2c"
  type: "Convolution"
  bottom: "res3d_branch2b"
  top: "res3d_branch2c"
  convolution_param {
    num_output: 512
    bias_term: false
    pad: 0
    kernel_size: 1
    stride: 1
  }
}
layer {
  name: "bn3d_branch2c"
  type: "BatchNorm"
  bottom: "res3d_branch2c"
  top: "res3d_branch2c"
  batch_norm_param {
    use_global_stats: true
  }
}
layer {
  name: "scale3d_branch2c"
  type: "Scale"
  bottom: "res3d_branch2c"
  top: "res3d_branch2c"
  scale_param {
    bias_term: true
  }
}
layer {
  name: "res3d"
  type: "Eltwise"
  bottom: "res3c"
  bottom: "res3d_branch2c"
  top: "res3d"
}
layer {
  name: "res3d_relu"
  type: "ReLU"
  bottom: "res3d"
  top: "res3d"
}
layer {
  name: "res4a_branch1"
  type: "Convolution"
  bottom: "res3d"
  top: "res4a_branch1"
  convolution_param {
    num_output: 1024
    bias_term: false
    pad: 0
    kernel_size: 1
    stride: 2
  }
}
layer {
  name: "bn4a_branch1"
  type: "BatchNorm"
  bottom: "res4a_branch1"
  top: "res4a_branch1"
  batch_norm_param {
    use_global_stats: true
  }
}
layer {
  name: "scale4a_branch1"
  type: "Scale"
  bottom: "res4a_branch1"
  top: "res4a_branch1"
  scale_param {
    bias_term: true
  }
}
layer {
  name: "res4a_branch2a"
  type: "Convolution"
  bottom: "res3d"
  top: "res4a_branch2a"
  convolution_param {
    num_output: 256
    bias_term: false
    pad: 0
    kernel_size: 1
    stride: 2
  }
}
layer {
  name: "bn4a_branch2a"
  type: "BatchNorm"
  bottom: "res4a_branch2a"
  top: "res4a_branch2a"
  batch_norm_param {
    use_global_stats: true
  }
}
layer {
  name: "scale4a_branch2a"
  type: "Scale"
  bottom: "res4a_branch2a"
  top: "res4a_branch2a"
  scale_param {
    bias_term: true
  }
}
layer {
  name: "res4a_branch2a_relu"
  type: "ReLU"
  bottom: "res4a_branch2a"
  top: "res4a_branch2a"
}
layer {
  name: "res4a_branch2b"
  type: "Convolution"
  bottom: "res4a_branch2a"
  top: "res4a_branch2b"
  convolution_param {
    num_output: 256
    bias_term: false
    pad: 1
    kernel_size: 3
    stride: 1
  }
}
layer {
  name: "bn4a_branch2b"
  type: "BatchNorm"
  bottom: "res4a_branch2b"
  top: "res4a_branch2b"
  batch_norm_param {
    use_global_stats: true
  }
}
layer {
  name: "scale4a_branch2b"
  type: "Scale"
  bottom: "res4a_branch2b"
  top: "res4a_branch2b"
  scale_param {
    bias_term: true
  }
}
layer {
  name: "res4a_branch2b_relu"
  type: "ReLU"
  bottom: "res4a_branch2b"
  top: "res4a_branch2b"
}
layer {
  name: "res4a_branch2c"
  type: "Convolution"
  bottom: "res4a_branch2b"
  top: "res4a_branch2c"
  convolution_param {
    num_output: 1024
    bias_term: false
    pad: 0
    kernel_size: 1
    stride: 1
  }
}
layer {
  name: "bn4a_branch2c"
  type: "BatchNorm"
  bottom: "res4a_branch2c"
  top: "res4a_branch2c"
  batch_norm_param {
    use_global_stats: true
  }
}
layer {
  name: "scale4a_branch2c"
  type: "Scale"
  bottom: "res4a_branch2c"
  top: "res4a_branch2c"
  scale_param {
    bias_term: true
  }
}
layer {
  name: "res4a"
  type: "Eltwise"
  bottom: "res4a_branch1"
  bottom: "res4a_branch2c"
  top: "res4a"
}
layer {
  name: "res4a_relu"
  type: "ReLU"
  bottom: "res4a"
  top: "res4a"
}
layer {
  name: "res4b_branch2a"
  type: "Convolution"
  bottom: "res4a"
  top: "res4b_branch2a"
  convolution_param {
    num_output: 256
    bias_term: false
    pad: 0
    kernel_size: 1
    stride: 1
  }
}
layer {
  name: "bn4b_branch2a"
  type: "BatchNorm"
  bottom: "res4b_branch2a"
  top: "res4b_branch2a"
  batch_norm_param {
    use_global_stats: true
  }
}
layer {
  name: "scale4b_branch2a"
  type: "Scale"
  bottom: "res4b_branch2a"
  top: "res4b_branch2a"
  scale_param {
    bias_term: true
  }
}
layer {
  name: "res4b_branch2a_relu"
  type: "ReLU"
  bottom: "res4b_branch2a"
  top: "res4b_branch2a"
}
layer {
  name: "res4b_branch2b"
  type: "Convolution"
  bottom: "res4b_branch2a"
  top: "res4b_branch2b"
  convolution_param {
    num_output: 256
    bias_term: false
    pad: 1
    kernel_size: 3
    stride: 1
  }
}
layer {
  name: "bn4b_branch2b"
  type: "BatchNorm"
  bottom: "res4b_branch2b"
  top: "res4b_branch2b"
  batch_norm_param {
    use_global_stats: true
  }
}
layer {
  name: "scale4b_branch2b"
  type: "Scale"
  bottom: "res4b_branch2b"
  top: "res4b_branch2b"
  scale_param {
    bias_term: true
  }
}
layer {
  name: "res4b_branch2b_relu"
  type: "ReLU"
  bottom: "res4b_branch2b"
  top: "res4b_branch2b"
}
layer {
  name: "res4b_branch2c"
  type: "Convolution"
  bottom: "res4b_branch2b"
  top: "res4b_branch2c"
  convolution_param {
    num_output: 1024
    bias_term: false
    pad: 0
    kernel_size: 1
    stride: 1
  }
}
layer {
  name: "bn4b_branch2c"
  type: "BatchNorm"
  bottom: "res4b_branch2c"
  top: "res4b_branch2c"
  batch_norm_param {
    use_global_stats: true
  }
}
layer {
  name: "scale4b_branch2c"
  type: "Scale"
  bottom: "res4b_branch2c"
  top: "res4b_branch2c"
  scale_param {
    bias_term: true
  }
}
layer {
  name: "res4b"
  type: "Eltwise"
  bottom: "res4a"
  bottom: "res4b_branch2c"
  top: "res4b"
}
layer {
  name: "res4b_relu"
  type: "ReLU"
  bottom: "res4b"
  top: "res4b"
}
layer {
  name: "res4c_branch2a"
  type: "Convolution"
  bottom: "res4b"
  top: "res4c_branch2a"
  convolution_param {
    num_output: 256
    bias_term: false
    pad: 0
    kernel_size: 1
    stride: 1
  }
}
layer {
  name: "bn4c_branch2a"
  type: "BatchNorm"
  bottom: "res4c_branch2a"
  top: "res4c_branch2a"
  batch_norm_param {
    use_global_stats: true
  }
}
layer {
  name: "scale4c_branch2a"
  type: "Scale"
  bottom: "res4c_branch2a"
  top: "res4c_branch2a"
  scale_param {
    bias_term: true
  }
}
layer {
  name: "res4c_branch2a_relu"
  type: "ReLU"
  bottom: "res4c_branch2a"
  top: "res4c_branch2a"
}
layer {
  name: "res4c_branch2b"
  type: "Convolution"
  bottom: "res4c_branch2a"
  top: "res4c_branch2b"
  convolution_param {
    num_output: 256
    bias_term: false
    pad: 1
    kernel_size: 3
    stride: 1
  }
}
layer {
  name: "bn4c_branch2b"
  type: "BatchNorm"
  bottom: "res4c_branch2b"
  top: "res4c_branch2b"
  batch_norm_param {
    use_global_stats: true
  }
}
layer {
  name: "scale4c_branch2b"
  type: "Scale"
  bottom: "res4c_branch2b"
  top: "res4c_branch2b"
  scale_param {
    bias_term: true
  }
}
layer {
  name: "res4c_branch2b_relu"
  type: "ReLU"
  bottom: "res4c_branch2b"
  top: "res4c_branch2b"
}
layer {
  name: "res4c_branch2c"
  type: "Convolution"
  bottom: "res4c_branch2b"
  top: "res4c_branch2c"
  convolution_param {
    num_output: 1024
    bias_term: false
    pad: 0
    kernel_size: 1
    stride: 1
  }
}
layer {
  name: "bn4c_branch2c"
  type: "BatchNorm"
  bottom: "res4c_branch2c"
  top: "res4c_branch2c"
  batch_norm_param {
    use_global_stats: true
  }
}
layer {
  name: "scale4c_branch2c"
  type: "Scale"
  bottom: "res4c_branch2c"
  top: "res4c_branch2c"
  scale_param {
    bias_term: true
  }
}
layer {
  name: "res4c"
  type: "Eltwise"
  bottom: "res4b"
  bottom: "res4c_branch2c"
  top: "res4c"
}
layer {
  name: "res4c_relu"
  type: "ReLU"
  bottom: "res4c"
  top: "res4c"
}
layer {
  name: "res4d_branch2a"
  type: "Convolution"
  bottom: "res4c"
  top: "res4d_branch2a"
  convolution_param {
    num_output: 256
    bias_term: false
    pad: 0
    kernel_size: 1
    stride: 1
  }
}
layer {
  name: "bn4d_branch2a"
  type: "BatchNorm"
  bottom: "res4d_branch2a"
  top: "res4d_branch2a"
  batch_norm_param {
    use_global_stats: true
  }
}
layer {
  name: "scale4d_branch2a"
  type: "Scale"
  bottom: "res4d_branch2a"
  top: "res4d_branch2a"
  scale_param {
    bias_term: true
  }
}
layer {
  name: "res4d_branch2a_relu"
  type: "ReLU"
  bottom: "res4d_branch2a"
  top: "res4d_branch2a"
}
layer {
  name: "res4d_branch2b"
  type: "Convolution"
  bottom: "res4d_branch2a"
  top: "res4d_branch2b"
  convolution_param {
    num_output: 256
    bias_term: false
    pad: 1
    kernel_size: 3
    stride: 1
  }
}
layer {
  name: "bn4d_branch2b"
  type: "BatchNorm"
  bottom: "res4d_branch2b"
  top: "res4d_branch2b"
  batch_norm_param {
    use_global_stats: true
  }
}
layer {
  name: "scale4d_branch2b"
  type: "Scale"
  bottom: "res4d_branch2b"
  top: "res4d_branch2b"
  scale_param {
    bias_term: true
  }
}
layer {
  name: "res4d_branch2b_relu"
  type: "ReLU"
  bottom: "res4d_branch2b"
  top: "res4d_branch2b"
}
layer {
  name: "res4d_branch2c"
  type: "Convolution"
  bottom: "res4d_branch2b"
  top: "res4d_branch2c"
  convolution_param {
    num_output: 1024
    bias_term: false
    pad: 0
    kernel_size: 1
    stride: 1
  }
}
layer {
  name: "bn4d_branch2c"
  type: "BatchNorm"
  bottom: "res4d_branch2c"
  top: "res4d_branch2c"
  batch_norm_param {
    use_global_stats: true
  }
}
layer {
  name: "scale4d_branch2c"
  type: "Scale"
  bottom: "res4d_branch2c"
  top: "res4d_branch2c"
  scale_param {
    bias_term: true
  }
}
layer {
  name: "res4d"
  type: "Eltwise"
  bottom: "res4c"
  bottom: "res4d_branch2c"
  top: "res4d"
}
layer {
  name: "res4d_relu"
  type: "ReLU"
  bottom: "res4d"
  top: "res4d"
}
layer {
  name: "res4e_branch2a"
  type: "Convolution"
  bottom: "res4d"
  top: "res4e_branch2a"
  convolution_param {
    num_output: 256
    bias_term: false
    pad: 0
    kernel_size: 1
    stride: 1
  }
}
layer {
  name: "bn4e_branch2a"
  type: "BatchNorm"
  bottom: "res4e_branch2a"
  top: "res4e_branch2a"
  batch_norm_param {
    use_global_stats: true
  }
}
layer {
  name: "scale4e_branch2a"
  type: "Scale"
  bottom: "res4e_branch2a"
  top: "res4e_branch2a"
  scale_param {
    bias_term: true
  }
}
layer {
  name: "res4e_branch2a_relu"
  type: "ReLU"
  bottom: "res4e_branch2a"
  top: "res4e_branch2a"
}
layer {
  name: "res4e_branch2b"
  type: "Convolution"
  bottom: "res4e_branch2a"
  top: "res4e_branch2b"
  convolution_param {
    num_output: 256
    bias_term: false
    pad: 1
    kernel_size: 3
    stride: 1
  }
}
layer {
  name: "bn4e_branch2b"
  type: "BatchNorm"
  bottom: "res4e_branch2b"
  top: "res4e_branch2b"
  batch_norm_param {
    use_global_stats: true
  }
}
layer {
  name: "scale4e_branch2b"
  type: "Scale"
  bottom: "res4e_branch2b"
  top: "res4e_branch2b"
  scale_param {
    bias_term: true
  }
}
layer {
  name: "res4e_branch2b_relu"
  type: "ReLU"
  bottom: "res4e_branch2b"
  top: "res4e_branch2b"
}
layer {
  name: "res4e_branch2c"
  type: "Convolution"
  bottom: "res4e_branch2b"
  top: "res4e_branch2c"
  convolution_param {
    num_output: 1024
    bias_term: false
    pad: 0
    kernel_size: 1
    stride: 1
  }
}
layer {
  name: "bn4e_branch2c"
  type: "BatchNorm"
  bottom: "res4e_branch2c"
  top: "res4e_branch2c"
  batch_norm_param {
    use_global_stats: true
  }
}
layer {
  name: "scale4e_branch2c"
  type: "Scale"
  bottom: "res4e_branch2c"
  top: "res4e_branch2c"
  scale_param {
    bias_term: true
  }
}
layer {
  name: "res4e"
  type: "Eltwise"
  bottom: "res4d"
  bottom: "res4e_branch2c"
  top: "res4e"
}
layer {
  name: "res4e_relu"
  type: "ReLU"
  bottom: "res4e"
  top: "res4e"
}
layer {
  name: "res4f_branch2a"
  type: "Convolution"
  bottom: "res4e"
  top: "res4f_branch2a"
  convolution_param {
    num_output: 256
    bias_term: false
    pad: 0
    kernel_size: 1
    stride: 1
  }
}
layer {
  name: "bn4f_branch2a"
  type: "BatchNorm"
  bottom: "res4f_branch2a"
  top: "res4f_branch2a"
  batch_norm_param {
    use_global_stats: true
  }
}
layer {
  name: "scale4f_branch2a"
  type: "Scale"
  bottom: "res4f_branch2a"
  top: "res4f_branch2a"
  scale_param {
    bias_term: true
  }
}
layer {
  name: "res4f_branch2a_relu"
  type: "ReLU"
  bottom: "res4f_branch2a"
  top: "res4f_branch2a"
}
layer {
  name: "res4f_branch2b"
  type: "Convolution"
  bottom: "res4f_branch2a"
  top: "res4f_branch2b"
  convolution_param {
    num_output: 256
    bias_term: false
    pad: 1
    kernel_size: 3
    stride: 1
  }
}
layer {
  name: "bn4f_branch2b"
  type: "BatchNorm"
  bottom: "res4f_branch2b"
  top: "res4f_branch2b"
  batch_norm_param {
    use_global_stats: true
  }
}
layer {
  name: "scale4f_branch2b"
  type: "Scale"
  bottom: "res4f_branch2b"
  top: "res4f_branch2b"
  scale_param {
    bias_term: true
  }
}
layer {
  name: "res4f_branch2b_relu"
  type: "ReLU"
  bottom: "res4f_branch2b"
  top: "res4f_branch2b"
}
layer {
  name: "res4f_branch2c"
  type: "Convolution"
  bottom: "res4f_branch2b"
  top: "res4f_branch2c"
  convolution_param {
    num_output: 1024
    bias_term: false
    pad: 0
    kernel_size: 1
    stride: 1
  }
}
layer {
  name: "bn4f_branch2c"
  type: "BatchNorm"
  bottom: "res4f_branch2c"
  top: "res4f_branch2c"
  batch_norm_param {
    use_global_stats: true
  }
}
layer {
  name: "scale4f_branch2c"
  type: "Scale"
  bottom: "res4f_branch2c"
  top: "res4f_branch2c"
  scale_param {
    bias_term: true
  }
}
layer {
  name: "res4f"
  type: "Eltwise"
  bottom: "res4e"
  bottom: "res4f_branch2c"
  top: "res4f"
}
layer {
  name: "res4f_relu"
  type: "ReLU"
  bottom: "res4f"
  top: "res4f"
}
layer {
  name: "im2col"
  type: "Im2col"
  bottom: "res4f"
  top: "im2col"
  convolution_param {
    pad: 1
    kernel_size: 3
  }
}
layer {
  name: "im2col_transpose"
  type: "Transpose"
  bottom: "im2col"
  top: "im2col_transpose"
  transpose_param {
    dim: 3
    dim: 2
    dim: 0
    dim: 1
  }
}
layer {
  name: "lstm_input"
  type: "Reshape"
  bottom: "im2col_transpose"
  top: "lstm_input"
  reshape_param {
    shape {
      dim: -1
    }
    axis: 1
    num_axes: 2
  }
}
layer {
  name: "lstm"
  type: "Lstm"
  bottom: "lstm_input"
  top: "lstm"
  lstm_param {
    num_output: 128
    clipping_threshold: 0.1
    weight_filler {
      type: "gaussian"
      std: 0.01
    }
    bias_filler {
      type: "constant"
      value: 0
    }
  }
}
layer {
  name: "lstm-reverse1"
  type: "Reverse"
  bottom: "lstm_input"
  top: "rlstm_input"
  reverse_param {
    axis: 0
  }
}
layer {
  name: "rlstm"
  type: "Lstm"
  bottom: "rlstm_input"
  top: "rlstm-output"
  lstm_param {
    num_output: 128
    clipping_threshold: 0.1
    weight_filler {
      type: "gaussian"
      std: 0.01
    }
    bias_filler {
      type: "constant"
      value: 0
    }
  }
}
layer {
  name: "lstm-reverse2"
  type: "Reverse"
  bottom: "rlstm-output"
  top: "rlstm"
  reverse_param {
    axis: 0
  }
}
layer {
  name: "merge_lstm_rlstm"
  type: "Concat"
  bottom: "lstm"
  bottom: "rlstm"
  top: "merge_lstm_rlstm"
  concat_param {
    axis: 2
  }
}
layer {
  name: "lstm_output_reshape"
  type: "Reshape"
  bottom: "merge_lstm_rlstm"
  top: "lstm_output_reshape"
  reshape_param {
    shape {
      dim: -1
      dim: 1
    }
    axis: 1
    num_axes: 1
  }
}
layer {
  name: "lstm_output"
  type: "Transpose"
  bottom: "lstm_output_reshape"
  top: "lstm_output"
  transpose_param {
    dim: 2
    dim: 3
    dim: 1
    dim: 0
  }
}
layer {
  name: "fc"
  type: "Convolution"
  bottom: "lstm_output"
  top: "fc"
  param {
    lr_mult: 1
  }
  param {
    lr_mult: 2
  }
  convolution_param {
    num_output: 512
    kernel_size: 1
    weight_filler {
      type: "gaussian"
      std: 0.01
    }
    bias_filler {
      type: "constant"
      value: 0
   
I0809 14:29:55.932087 15212 layer_factory.hpp:76] Creating layer input_data
I0809 14:29:56.030045 15212 net.cpp:111] Creating Layer input_data
I0809 14:29:56.030073 15212 net.cpp:434] input_data -> data
I0809 14:29:56.030088 15212 net.cpp:434] input_data -> im_info
I0809 14:29:56.030094 15212 net.cpp:434] input_data -> gt_boxes
I0809 14:29:56.030102 15212 net.cpp:434] input_data -> side_pos
I0809 14:29:56.049756 15212 net.cpp:156] Setting up input_data
I0809 14:29:56.049789 15212 net.cpp:164] Top shape: 1 3 400 400 (480000)
I0809 14:29:56.049794 15212 net.cpp:164] Top shape: 1 2 (2)
I0809 14:29:56.049798 15212 net.cpp:164] Top shape: 1 4 (4)
I0809 14:29:56.049800 15212 net.cpp:164] Top shape: 1 1 (1)
I0809 14:29:56.049806 15212 layer_factory.hpp:76] Creating layer conv1
I0809 14:29:56.049820 15212 net.cpp:111] Creating Layer conv1
I0809 14:29:56.049829 15212 net.cpp:478] conv1 <- data
I0809 14:29:56.049835 15212 net.cpp:434] conv1 -> conv1
I0809 14:29:57.234453 15212 net.cpp:156] Setting up conv1
I0809 14:29:57.234490 15212 net.cpp:164] Top shape: 1 64 200 200 (2560000)
I0809 14:29:57.234513 15212 layer_factory.hpp:76] Creating layer bn_conv1
I0809 14:29:57.234925 15212 net.cpp:111] Creating Layer bn_conv1
I0809 14:29:57.234935 15212 net.cpp:478] bn_conv1 <- conv1
I0809 14:29:57.234941 15212 net.cpp:420] bn_conv1 -> conv1 (in-place)
I0809 14:29:57.235062 15212 net.cpp:156] Setting up bn_conv1
I0809 14:29:57.235076 15212 net.cpp:164] Top shape: 1 64 200 200 (2560000)
I0809 14:29:57.235095 15212 layer_factory.hpp:76] Creating layer scale_conv1
I0809 14:29:57.235108 15212 net.cpp:111] Creating Layer scale_conv1
I0809 14:29:57.235114 15212 net.cpp:478] scale_conv1 <- conv1
I0809 14:29:57.235126 15212 net.cpp:420] scale_conv1 -> conv1 (in-place)
I0809 14:29:57.235163 15212 layer_factory.hpp:76] Creating layer scale_conv1
I0809 14:29:57.235294 15212 net.cpp:156] Setting up scale_conv1
I0809 14:29:57.235306 15212 net.cpp:164] Top shape: 1 64 200 200 (2560000)
I0809 14:29:57.235316 15212 layer_factory.hpp:76] Creating layer conv1_relu
I0809 14:29:57.235327 15212 net.cpp:111] Creating Layer conv1_relu
I0809 14:29:57.235335 15212 net.cpp:478] conv1_relu <- conv1
I0809 14:29:57.235342 15212 net.cpp:420] conv1_relu -> conv1 (in-place)
I0809 14:29:57.235354 15212 net.cpp:156] Setting up conv1_relu
I0809 14:29:57.235361 15212 net.cpp:164] Top shape: 1 64 200 200 (2560000)
I0809 14:29:57.235366 15212 layer_factory.hpp:76] Creating layer pool1
I0809 14:29:57.235379 15212 net.cpp:111] Creating Layer pool1
I0809 14:29:57.235386 15212 net.cpp:478] pool1 <- conv1
I0809 14:29:57.235394 15212 net.cpp:434] pool1 -> pool1
I0809 14:29:57.235414 15212 net.cpp:156] Setting up pool1
I0809 14:29:57.235419 15212 net.cpp:164] Top shape: 1 64 100 100 (640000)
I0809 14:29:57.235422 15212 layer_factory.hpp:76] Creating layer pool1_pool1_0_split
I0809 14:29:57.235430 15212 net.cpp:111] Creating Layer pool1_pool1_0_split
I0809 14:29:57.235433 15212 net.cpp:478] pool1_pool1_0_split <- pool1
I0809 14:29:57.235437 15212 net.cpp:434] pool1_pool1_0_split -> pool1_pool1_0_split_0
I0809 14:29:57.235442 15212 net.cpp:434] pool1_pool1_0_split -> pool1_pool1_0_split_1
I0809 14:29:57.235453 15212 net.cpp:156] Setting up pool1_pool1_0_split
I0809 14:29:57.235461 15212 net.cpp:164] Top shape: 1 64 100 100 (640000)
I0809 14:29:57.235471 15212 net.cpp:164] Top shape: 1 64 100 100 (640000)
I0809 14:29:57.235474 15212 layer_factory.hpp:76] Creating layer res2a_branch1
I0809 14:29:57.235486 15212 net.cpp:111] Creating Layer res2a_branch1
I0809 14:29:57.235493 15212 net.cpp:478] res2a_branch1 <- pool1_pool1_0_split_0
I0809 14:29:57.235502 15212 net.cpp:434] res2a_branch1 -> res2a_branch1
I0809 14:29:57.235571 15212 net.cpp:156] Setting up res2a_branch1
I0809 14:29:57.235580 15212 net.cpp:164] Top shape: 1 256 100 100 (2560000)
I0809 14:29:57.235585 15212 layer_factory.hpp:76] Creating layer bn2a_branch1
I0809 14:29:57.235599 15212 net.cpp:111] Creating Layer bn2a_branch1
I0809 14:29:57.235605 15212 net.cpp:478] bn2a_branch1 <- res2a_branch1
I0809 14:29:57.235613 15212 net.cpp:420] bn2a_branch1 -> res2a_branch1 (in-place)
I0809 14:29:57.235682 15212 net.cpp:156] Setting up bn2a_branch1
I0809 14:29:57.235688 15212 net.cpp:164] Top shape: 1 256 100 100 (2560000)
I0809 14:29:57.235697 15212 layer_factory.hpp:76] Creating layer scale2a_branch1
I0809 14:29:57.235704 15212 net.cpp:111] Creating Layer scale2a_branch1
I0809 14:29:57.235709 15212 net.cpp:478] scale2a_branch1 <- res2a_branch1
I0809 14:29:57.235730 15212 net.cpp:420] scale2a_branch1 -> res2a_branch1 (in-place)
I0809 14:29:57.235767 15212 layer_factory.hpp:76] Creating layer scale2a_branch1
I0809 14:29:57.235843 15212 net.cpp:156] Setting up scale2a_branch1
I0809 14:29:57.235853 15212 net.cpp:164] Top shape: 1 256 100 100 (2560000)
I0809 14:29:57.235863 15212 layer_factory.hpp:76] Creating layer res2a_branch2a
I0809 14:29:57.235873 15212 net.cpp:111] Creating Layer res2a_branch2a
I0809 14:29:57.235882 15212 net.cpp:478] res2a_branch2a <- pool1_pool1_0_split_1
I0809 14:29:57.235888 15212 net.cpp:434] res2a_branch2a -> res2a_branch2a
I0809 14:29:57.236575 15212 net.cpp:156] Setting up res2a_branch2a
I0809 14:29:57.236588 15212 net.cpp:164] Top shape: 1 64 100 100 (640000)
I0809 14:29:57.236593 15212 layer_factory.hpp:76] Creating layer bn2a_branch2a
I0809 14:29:57.236599 15212 net.cpp:111] Creating Layer bn2a_branch2a
I0809 14:29:57.236606 15212 net.cpp:478] bn2a_branch2a <- res2a_branch2a
I0809 14:29:57.236616 15212 net.cpp:420] bn2a_branch2a -> res2a_branch2a (in-place)
I0809 14:29:57.236696 15212 net.cpp:156] Setting up bn2a_branch2a
I0809 14:29:57.236706 15212 net.cpp:164] Top shape: 1 64 100 100 (640000)
I0809 14:29:57.236721 15212 layer_factory.hpp:76] Creating layer scale2a_branch2a
I0809 14:29:57.236732 15212 net.cpp:111] Creating Layer scale2a_branch2a
I0809 14:29:57.236739 15212 net.cpp:478] scale2a_branch2a <- res2a_branch2a
I0809 14:29:57.236747 15212 net.cpp:420] scale2a_branch2a -> res2a_branch2a (in-place)
I0809 14:29:57.236778 15212 layer_factory.hpp:76] Creating layer scale2a_branch2a
I0809 14:29:57.236853 15212 net.cpp:156] Setting up scale2a_branch2a
I0809 14:29:57.236863 15212 net.cpp:164] Top shape: 1 64 100 100 (640000)
I0809 14:29:57.236872 15212 layer_factory.hpp:76] Creating layer res2a_branch2a_relu
I0809 14:29:57.236882 15212 net.cpp:111] Creating Layer res2a_branch2a_relu
I0809 14:29:57.236888 15212 net.cpp:478] res2a_branch2a_relu <- res2a_branch2a
I0809 14:29:57.236896 15212 net.cpp:420] res2a_branch2a_relu -> res2a_branch2a (in-place)
I0809 14:29:57.236907 15212 net.cpp:156] Setting up res2a_branch2a_relu
I0809 14:29:57.236915 15212 net.cpp:164] Top shape: 1 64 100 100 (640000)
I0809 14:29:57.236922 15212 layer_factory.hpp:76] Creating layer res2a_branch2b
I0809 14:29:57.236932 15212 net.cpp:111] Creating Layer res2a_branch2b
I0809 14:29:57.236937 15212 net.cpp:478] res2a_branch2b <- res2a_branch2a
I0809 14:29:57.236943 15212 net.cpp:434] res2a_branch2b -> res2a_branch2b
I0809 14:29:57.236995 15212 net.cpp:156] Setting up res2a_branch2b
I0809 14:29:57.237004 15212 net.cpp:164] Top shape: 1 64 100 100 (640000)
I0809 14:29:57.237012 15212 layer_factory.hpp:76] Creating layer bn2a_branch2b
I0809 14:29:57.237023 15212 net.cpp:111] Creating Layer bn2a_branch2b
I0809 14:29:57.237032 15212 net.cpp:478] bn2a_branch2b <- res2a_branch2b
I0809 14:29:57.237040 15212 net.cpp:420] bn2a_branch2b -> res2a_branch2b (in-place)
I0809 14:29:57.237112 15212 net.cpp:156] Setting up bn2a_branch2b
I0809 14:29:57.237119 15212 net.cpp:164] Top shape: 1 64 100 100 (640000)
I0809 14:29:57.237125 15212 layer_factory.hpp:76] Creating layer scale2a_branch2b
I0809 14:29:57.237133 15212 net.cpp:111] Creating Layer scale2a_branch2b
I0809 14:29:57.237138 15212 net.cpp:478] scale2a_branch2b <- res2a_branch2b
I0809 14:29:57.237143 15212 net.cpp:420] scale2a_branch2b -> res2a_branch2b (in-place)
I0809 14:29:57.237165 15212 layer_factory.hpp:76] Creating layer scale2a_branch2b
I0809 14:29:57.237231 15212 net.cpp:156] Setting up scale2a_branch2b
I0809 14:29:57.237239 15212 net.cpp:164] Top shape: 1 64 100 100 (640000)
I0809 14:29:57.237244 15212 layer_factory.hpp:76] Creating layer res2a_branch2b_relu
I0809 14:29:57.237251 15212 net.cpp:111] Creating Layer res2a_branch2b_relu
I0809 14:29:57.237254 15212 net.cpp:478] res2a_branch2b_relu <- res2a_branch2b
I0809 14:29:57.237258 15212 net.cpp:420] res2a_branch2b_relu -> res2a_branch2b (in-place)
I0809 14:29:57.237263 15212 net.cpp:156] Setting up res2a_branch2b_relu
I0809 14:29:57.237268 15212 net.cpp:164] Top shape: 1 64 100 100 (640000)
I0809 14:29:57.237270 15212 layer_factory.hpp:76] Creating layer res2a_branch2c
I0809 14:29:57.237275 15212 net.cpp:111] Creating Layer res2a_branch2c
I0809 14:29:57.237279 15212 net.cpp:478] res2a_branch2c <- res2a_branch2b
I0809 14:29:57.237284 15212 net.cpp:434] res2a_branch2c -> res2a_branch2c
I0809 14:29:57.237318 15212 net.cpp:156] Setting up res2a_branch2c
I0809 14:29:57.237325 15212 net.cpp:164] Top shape: 1 256 100 100 (2560000)
I0809 14:29:57.237329 15212 layer_factory.hpp:76] Creating layer bn2a_branch2c
I0809 14:29:57.237335 15212 net.cpp:111] Creating Layer bn2a_branch2c
I0809 14:29:57.237339 15212 net.cpp:478] bn2a_branch2c <- res2a_branch2c
I0809 14:29:57.237346 15212 net.cpp:420] bn2a_branch2c -> res2a_branch2c (in-place)
I0809 14:29:57.237407 15212 net.cpp:156] Setting up bn2a_branch2c
I0809 14:29:57.237414 15212 net.cpp:164] Top shape: 1 256 100 100 (2560000)
I0809 14:29:57.237421 15212 layer_factory.hpp:76] Creating layer scale2a_branch2c
I0809 14:29:57.237426 15212 net.cpp:111] Creating Layer scale2a_branch2c
I0809 14:29:57.237429 15212 net.cpp:478] scale2a_branch2c <- res2a_branch2c
I0809 14:29:57.237433 15212 net.cpp:420] scale2a_branch2c -> res2a_branch2c (in-place)
I0809 14:29:57.237465 15212 layer_factory.hpp:76] Creating layer scale2a_branch2c
I0809 14:29:57.237532 15212 net.cpp:156] Setting up scale2a_branch2c
I0809 14:29:57.237542 15212 net.cpp:164] Top shape: 1 256 100 100 (2560000)
I0809 14:29:57.237551 15212 layer_factory.hpp:76] Creating layer res2a
I0809 14:29:57.237565 15212 net.cpp:111] Creating Layer res2a
I0809 14:29:57.237571 15212 net.cpp:478] res2a <- res2a_branch1
I0809 14:29:57.237581 15212 net.cpp:478] res2a <- res2a_branch2c
I0809 14:29:57.237589 15212 net.cpp:434] res2a -> res2a
I0809 14:29:57.237599 15212 net.cpp:156] Setting up res2a
I0809 14:29:57.237604 15212 net.cpp:164] Top shape: 1 256 100 100 (2560000)
I0809 14:29:57.237607 15212 layer_factory.hpp:76] Creating layer res2a_relu
I0809 14:29:57.237612 15212 net.cpp:111] Creating Layer res2a_relu
I0809 14:29:57.237614 15212 net.cpp:478] res2a_relu <- res2a
I0809 14:29:57.237617 15212 net.cpp:420] res2a_relu -> res2a (in-place)
I0809 14:29:57.237627 15212 net.cpp:156] Setting up res2a_relu
I0809 14:29:57.237633 15212 net.cpp:164] Top shape: 1 256 100 100 (2560000)
I0809 14:29:57.237643 15212 layer_factory.hpp:76] Creating layer res2a_res2a_relu_0_split
I0809 14:29:57.237648 15212 net.cpp:111] Creating Layer res2a_res2a_relu_0_split
I0809 14:29:57.237651 15212 net.cpp:478] res2a_res2a_relu_0_split <- res2a
I0809 14:29:57.237655 15212 net.cpp:434] res2a_res2a_relu_0_split -> res2a_res2a_relu_0_split_0
I0809 14:29:57.237664 15212 net.cpp:434] res2a_res2a_relu_0_split -> res2a_res2a_relu_0_split_1
I0809 14:29:57.237675 15212 net.cpp:156] Setting up res2a_res2a_relu_0_split
I0809 14:29:57.237681 15212 net.cpp:164] Top shape: 1 256 100 100 (2560000)
I0809 14:29:57.237685 15212 net.cpp:164] Top shape: 1 256 100 100 (2560000)
I0809 14:29:57.237687 15212 layer_factory.hpp:76] Creating layer res2b_branch2a
I0809 14:29:57.237694 15212 net.cpp:111] Creating Layer res2b_branch2a
I0809 14:29:57.237699 15212 net.cpp:478] res2b_branch2a <- res2a_res2a_relu_0_split_0
I0809 14:29:57.237702 15212 net.cpp:434] res2b_branch2a -> res2b_branch2a
I0809 14:29:57.237736 15212 net.cpp:156] Setting up res2b_branch2a
I0809 14:29:57.237745 15212 net.cpp:164] Top shape: 1 64 100 100 (640000)
I0809 14:29:57.237748 15212 layer_factory.hpp:76] Creating layer bn2b_branch2a
I0809 14:29:57.237756 15212 net.cpp:111] Creating Layer bn2b_branch2a
I0809 14:29:57.237761 15212 net.cpp:478] bn2b_branch2a <- res2b_branch2a
I0809 14:29:57.237763 15212 net.cpp:420] bn2b_branch2a -> res2b_branch2a (in-place)
I0809 14:29:57.237828 15212 net.cpp:156] Setting up bn2b_branch2a
I0809 14:29:57.237834 15212 net.cpp:164] Top shape: 1 64 100 100 (640000)
I0809 14:29:57.237846 15212 layer_factory.hpp:76] Creating layer scale2b_branch2a
I0809 14:29:57.237853 15212 net.cpp:111] Creating Layer scale2b_branch2a
I0809 14:29:57.237856 15212 net.cpp:478] scale2b_branch2a <- res2b_branch2a
I0809 14:29:57.237860 15212 net.cpp:420] scale2b_branch2a -> res2b_branch2a (in-place)
I0809 14:29:57.237881 15212 layer_factory.hpp:76] Creating layer scale2b_branch2a
I0809 14:29:57.237944 15212 net.cpp:156] Setting up scale2b_branch2a
I0809 14:29:57.237956 15212 net.cpp:164] Top shape: 1 64 100 100 (640000)
I0809 14:29:57.237964 15212 layer_factory.hpp:76] Creating layer res2b_branch2a_relu
I0809 14:29:57.237974 15212 net.cpp:111] Creating Layer res2b_branch2a_relu
I0809 14:29:57.237982 15212 net.cpp:478] res2b_branch2a_relu <- res2b_branch2a
I0809 14:29:57.237993 15212 net.cpp:420] res2b_branch2a_relu -> res2b_branch2a (in-place)
I0809 14:29:57.237999 15212 net.cpp:156] Setting up res2b_branch2a_relu
I0809 14:29:57.238003 15212 net.cpp:164] Top shape: 1 64 100 100 (640000)
I0809 14:29:57.238008 15212 layer_factory.hpp:76] Creating layer res2b_branch2b
I0809 14:29:57.238011 15212 net.cpp:111] Creating Layer res2b_branch2b
I0809 14:29:57.238015 15212 net.cpp:478] res2b_branch2b <- res2b_branch2a
I0809 14:29:57.238019 15212 net.cpp:434] res2b_branch2b -> res2b_branch2b
I0809 14:29:57.238062 15212 net.cpp:156] Setting up res2b_branch2b
I0809 14:29:57.238073 15212 net.cpp:164] Top shape: 1 64 100 100 (640000)
I0809 14:29:57.238078 15212 layer_factory.hpp:76] Creating layer bn2b_branch2b
I0809 14:29:57.238085 15212 net.cpp:111] Creating Layer bn2b_branch2b
I0809 14:29:57.238087 15212 net.cpp:478] bn2b_branch2b <- res2b_branch2b
I0809 14:29:57.238090 15212 net.cpp:420] bn2b_branch2b -> res2b_branch2b (in-place)
I0809 14:29:57.238165 15212 net.cpp:156] Setting up bn2b_branch2b
I0809 14:29:57.238173 15212 net.cpp:164] Top shape: 1 64 100 100 (640000)
I0809 14:29:57.238179 15212 layer_factory.hpp:76] Creating layer scale2b_branch2b
I0809 14:29:57.238188 15212 net.cpp:111] Creating Layer scale2b_branch2b
I0809 14:29:57.238191 15212 net.cpp:478] scale2b_branch2b <- res2b_branch2b
I0809 14:29:57.238194 15212 net.cpp:420] scale2b_branch2b -> res2b_branch2b (in-place)
I0809 14:29:57.238215 15212 layer_factory.hpp:76] Creating layer scale2b_branch2b
I0809 14:29:57.238282 15212 net.cpp:156] Setting up scale2b_branch2b
I0809 14:29:57.238291 15212 net.cpp:164] Top shape: 1 64 100 100 (640000)
I0809 14:29:57.238296 15212 layer_factory.hpp:76] Creating layer res2b_branch2b_relu
I0809 14:29:57.238301 15212 net.cpp:111] Creating Layer res2b_branch2b_relu
I0809 14:29:57.238304 15212 net.cpp:478] res2b_branch2b_relu <- res2b_branch2b
I0809 14:29:57.238310 15212 net.cpp:420] res2b_branch2b_relu -> res2b_branch2b (in-place)
I0809 14:29:57.238317 15212 net.cpp:156] Setting up res2b_branch2b_relu
I0809 14:29:57.238320 15212 net.cpp:164] Top shape: 1 64 100 100 (640000)
I0809 14:29:57.238323 15212 layer_factory.hpp:76] Creating layer res2b_branch2c
I0809 14:29:57.238330 15212 net.cpp:111] Creating Layer res2b_branch2c
I0809 14:29:57.238334 15212 net.cpp:478] res2b_branch2c <- res2b_branch2b
I0809 14:29:57.238338 15212 net.cpp:434] res2b_branch2c -> res2b_branch2c
I0809 14:29:57.238375 15212 net.cpp:156] Setting up res2b_branch2c
I0809 14:29:57.238382 15212 net.cpp:164] Top shape: 1 256 100 100 (2560000)
I0809 14:29:57.238386 15212 layer_factory.hpp:76] Creating layer bn2b_branch2c
I0809 14:29:57.238392 15212 net.cpp:111] Creating Layer bn2b_branch2c
I0809 14:29:57.238396 15212 net.cpp:478] bn2b_branch2c <- res2b_branch2c
I0809 14:29:57.238400 15212 net.cpp:420] bn2b_branch2c -> res2b_branch2c (in-place)
I0809 14:29:57.239125 15212 net.cpp:156] Setting up bn2b_branch2c
I0809 14:29:57.239138 15212 net.cpp:164] Top shape: 1 256 100 100 (2560000)
I0809 14:29:57.239145 15212 layer_factory.hpp:76] Creating layer scale2b_branch2c
I0809 14:29:57.239153 15212 net.cpp:111] Creating Layer scale2b_branch2c
I0809 14:29:57.239158 15212 net.cpp:478] scale2b_branch2c <- res2b_branch2c
I0809 14:29:57.239162 15212 net.cpp:420] scale2b_branch2c -> res2b_branch2c (in-place)
I0809 14:29:57.239189 15212 layer_factory.hpp:76] Creating layer scale2b_branch2c
I0809 14:29:57.239245 15212 net.cpp:156] Setting up scale2b_branch2c
I0809 14:29:57.239253 15212 net.cpp:164] Top shape: 1 256 100 100 (2560000)
I0809 14:29:57.239259 15212 layer_factory.hpp:76] Creating layer res2b
I0809 14:29:57.239266 15212 net.cpp:111] Creating Layer res2b
I0809 14:29:57.239271 15212 net.cpp:478] res2b <- res2a_res2a_relu_0_split_1
I0809 14:29:57.239275 15212 net.cpp:478] res2b <- res2b_branch2c
I0809 14:29:57.239279 15212 net.cpp:434] res2b -> res2b
I0809 14:29:57.239286 15212 net.cpp:156] Setting up res2b
I0809 14:29:57.239293 15212 net.cpp:164] Top shape: 1 256 100 100 (2560000)
I0809 14:29:57.239300 15212 layer_factory.hpp:76] Creating layer res2b_relu
I0809 14:29:57.239305 15212 net.cpp:111] Creating Layer res2b_relu
I0809 14:29:57.239310 15212 net.cpp:478] res2b_relu <- res2b
I0809 14:29:57.239312 15212 net.cpp:420] res2b_relu -> res2b (in-place)
I0809 14:29:57.239317 15212 net.cpp:156] Setting up res2b_relu
I0809 14:29:57.239321 15212 net.cpp:164] Top shape: 1 256 100 100 (2560000)
I0809 14:29:57.239325 15212 layer_factory.hpp:76] Creating layer res2b_res2b_relu_0_split
I0809 14:29:57.239328 15212 net.cpp:111] Creating Layer res2b_res2b_relu_0_split
I0809 14:29:57.239332 15212 net.cpp:478] res2b_res2b_relu_0_split <- res2b
I0809 14:29:57.239336 15212 net.cpp:434] res2b_res2b_relu_0_split -> res2b_res2b_relu_0_split_0
I0809 14:29:57.239342 15212 net.cpp:434] res2b_res2b_relu_0_split -> res2b_res2b_relu_0_split_1
I0809 14:29:57.239349 15212 net.cpp:156] Setting up res2b_res2b_relu_0_split
I0809 14:29:57.239353 15212 net.cpp:164] Top shape: 1 256 100 100 (2560000)
I0809 14:29:57.239357 15212 net.cpp:164] Top shape: 1 256 100 100 (2560000)
I0809 14:29:57.239359 15212 layer_factory.hpp:76] Creating layer res2c_branch2a
I0809 14:29:57.239365 15212 net.cpp:111] Creating Layer res2c_branch2a
I0809 14:29:57.239368 15212 net.cpp:478] res2c_branch2a <- res2b_res2b_relu_0_split_0
I0809 14:29:57.239372 15212 net.cpp:434] res2c_branch2a -> res2c_branch2a
I0809 14:29:57.239405 15212 net.cpp:156] Setting up res2c_branch2a
I0809 14:29:57.239413 15212 net.cpp:164] Top shape: 1 64 100 100 (640000)
I0809 14:29:57.239416 15212 layer_factory.hpp:76] Creating layer bn2c_branch2a
I0809 14:29:57.239423 15212 net.cpp:111] Creating Layer bn2c_branch2a
I0809 14:29:57.239428 15212 net.cpp:478] bn2c_branch2a <- res2c_branch2a
I0809 14:29:57.239434 15212 net.cpp:420] bn2c_branch2a -> res2c_branch2a (in-place)
I0809 14:29:57.239496 15212 net.cpp:156] Setting up bn2c_branch2a
I0809 14:29:57.239503 15212 net.cpp:164] Top shape: 1 64 100 100 (640000)
I0809 14:29:57.239511 15212 layer_factory.hpp:76] Creating layer scale2c_branch2a
I0809 14:29:57.239522 15212 net.cpp:111] Creating Layer scale2c_branch2a
I0809 14:29:57.239526 15212 net.cpp:478] scale2c_branch2a <- res2c_branch2a
I0809 14:29:57.239529 15212 net.cpp:420] scale2c_branch2a -> res2c_branch2a (in-place)
I0809 14:29:57.239552 15212 layer_factory.hpp:76] Creating layer scale2c_branch2a
I0809 14:29:57.239606 15212 net.cpp:156] Setting up scale2c_branch2a
I0809 14:29:57.239614 15212 net.cpp:164] Top shape: 1 64 100 100 (640000)
I0809 14:29:57.239619 15212 layer_factory.hpp:76] Creating layer res2c_branch2a_relu
I0809 14:29:57.239624 15212 net.cpp:111] Creating Layer res2c_branch2a_relu
I0809 14:29:57.239629 15212 net.cpp:478] res2c_branch2a_relu <- res2c_branch2a
I0809 14:29:57.239632 15212 net.cpp:420] res2c_branch2a_relu -> res2c_branch2a (in-place)
I0809 14:29:57.239636 15212 net.cpp:156] Setting up res2c_branch2a_relu
I0809 14:29:57.239641 15212 net.cpp:164] Top shape: 1 64 100 100 (640000)
I0809 14:29:57.239645 15212 layer_factory.hpp:76] Creating layer res2c_branch2b
I0809 14:29:57.239650 15212 net.cpp:111] Creating Layer res2c_branch2b
I0809 14:29:57.239655 15212 net.cpp:478] res2c_branch2b <- res2c_branch2a
I0809 14:29:57.239658 15212 net.cpp:434] res2c_branch2b -> res2c_branch2b
I0809 14:29:57.240350 15212 net.cpp:156] Setting up res2c_branch2b
I0809 14:29:57.240362 15212 net.cpp:164] Top shape: 1 64 100 100 (640000)
I0809 14:29:57.240368 15212 layer_factory.hpp:76] Creating layer bn2c_branch2b
I0809 14:29:57.240375 15212 net.cpp:111] Creating Layer bn2c_branch2b
I0809 14:29:57.240380 15212 net.cpp:478] bn2c_branch2b <- res2c_branch2b
I0809 14:29:57.240383 15212 net.cpp:420] bn2c_branch2b -> res2c_branch2b (in-place)
I0809 14:29:57.240456 15212 net.cpp:156] Setting up bn2c_branch2b
I0809 14:29:57.240465 15212 net.cpp:164] Top shape: 1 64 100 100 (640000)
I0809 14:29:57.240473 15212 layer_factory.hpp:76] Creating layer scale2c_branch2b
I0809 14:29:57.240479 15212 net.cpp:111] Creating Layer scale2c_branch2b
I0809 14:29:57.240483 15212 net.cpp:478] scale2c_branch2b <- res2c_branch2b
I0809 14:29:57.240487 15212 net.cpp:420] scale2c_branch2b -> res2c_branch2b (in-place)
I0809 14:29:57.240510 15212 layer_factory.hpp:76] Creating layer scale2c_branch2b
I0809 14:29:57.240569 15212 net.cpp:156] Setting up scale2c_branch2b
I0809 14:29:57.240576 15212 net.cpp:164] Top shape: 1 64 100 100 (640000)
I0809 14:29:57.240581 15212 layer_factory.hpp:76] Creating layer res2c_branch2b_relu
I0809 14:29:57.240587 15212 net.cpp:111] Creating Layer res2c_branch2b_relu
I0809 14:29:57.240592 15212 net.cpp:478] res2c_branch2b_relu <- res2c_branch2b
I0809 14:29:57.240597 15212 net.cpp:420] res2c_branch2b_relu -> res2c_branch2b (in-place)
I0809 14:29:57.240603 15212 net.cpp:156] Setting up res2c_branch2b_relu
I0809 14:29:57.240608 15212 net.cpp:164] Top shape: 1 64 100 100 (640000)
I0809 14:29:57.240612 15212 layer_factory.hpp:76] Creating layer res2c_branch2c
I0809 14:29:57.240617 15212 net.cpp:111] Creating Layer res2c_branch2c
I0809 14:29:57.240620 15212 net.cpp:478] res2c_branch2c <- res2c_branch2b
I0809 14:29:57.240624 15212 net.cpp:434] res2c_branch2c -> res2c_branch2c
I0809 14:29:57.240656 15212 net.cpp:156] Setting up res2c_branch2c
I0809 14:29:57.240664 15212 net.cpp:164] Top shape: 1 256 100 100 (2560000)
I0809 14:29:57.240667 15212 layer_factory.hpp:76] Creating layer bn2c_branch2c
I0809 14:29:57.240674 15212 net.cpp:111] Creating Layer bn2c_branch2c
I0809 14:29:57.240676 15212 net.cpp:478] bn2c_branch2c <- res2c_branch2c
I0809 14:29:57.240680 15212 net.cpp:420] bn2c_branch2c -> res2c_branch2c (in-place)
I0809 14:29:57.240739 15212 net.cpp:156] Setting up bn2c_branch2c
I0809 14:29:57.240746 15212 net.cpp:164] Top shape: 1 256 100 100 (2560000)
I0809 14:29:57.240759 15212 layer_factory.hpp:76] Creating layer scale2c_branch2c
I0809 14:29:57.240767 15212 net.cpp:111] Creating Layer scale2c_branch2c
I0809 14:29:57.240770 15212 net.cpp:478] scale2c_branch2c <- res2c_branch2c
I0809 14:29:57.240777 15212 net.cpp:420] scale2c_branch2c -> res2c_branch2c (in-place)
I0809 14:29:57.240799 15212 layer_factory.hpp:76] Creating layer scale2c_branch2c
I0809 14:29:57.240855 15212 net.cpp:156] Setting up scale2c_branch2c
I0809 14:29:57.240862 15212 net.cpp:164] Top shape: 1 256 100 100 (2560000)
I0809 14:29:57.240869 15212 layer_factory.hpp:76] Creating layer res2c
I0809 14:29:57.240875 15212 net.cpp:111] Creating Layer res2c
I0809 14:29:57.240878 15212 net.cpp:478] res2c <- res2b_res2b_relu_0_split_1
I0809 14:29:57.240881 15212 net.cpp:478] res2c <- res2c_branch2c
I0809 14:29:57.240885 15212 net.cpp:434] res2c -> res2c
I0809 14:29:57.240892 15212 net.cpp:156] Setting up res2c
I0809 14:29:57.240897 15212 net.cpp:164] Top shape: 1 256 100 100 (2560000)
I0809 14:29:57.240900 15212 layer_factory.hpp:76] Creating layer res2c_relu
I0809 14:29:57.240906 15212 net.cpp:111] Creating Layer res2c_relu
I0809 14:29:57.240911 15212 net.cpp:478] res2c_relu <- res2c
I0809 14:29:57.240919 15212 net.cpp:420] res2c_relu -> res2c (in-place)
I0809 14:29:57.240928 15212 net.cpp:156] Setting up res2c_relu
I0809 14:29:57.240936 15212 net.cpp:164] Top shape: 1 256 100 100 (2560000)
I0809 14:29:57.240938 15212 layer_factory.hpp:76] Creating layer res2c_res2c_relu_0_split
I0809 14:29:57.240945 15212 net.cpp:111] Creating Layer res2c_res2c_relu_0_split
I0809 14:29:57.240948 15212 net.cpp:478] res2c_res2c_relu_0_split <- res2c
I0809 14:29:57.240952 15212 net.cpp:434] res2c_res2c_relu_0_split -> res2c_res2c_relu_0_split_0
I0809 14:29:57.240957 15212 net.cpp:434] res2c_res2c_relu_0_split -> res2c_res2c_relu_0_split_1
I0809 14:29:57.240963 15212 net.cpp:156] Setting up res2c_res2c_relu_0_split
I0809 14:29:57.240967 15212 net.cpp:164] Top shape: 1 256 100 100 (2560000)
I0809 14:29:57.240972 15212 net.cpp:164] Top shape: 1 256 100 100 (2560000)
I0809 14:29:57.240975 15212 layer_factory.hpp:76] Creating layer res3a_branch1
I0809 14:29:57.240979 15212 net.cpp:111] Creating Layer res3a_branch1
I0809 14:29:57.240983 15212 net.cpp:478] res3a_branch1 <- res2c_res2c_relu_0_split_0
I0809 14:29:57.240988 15212 net.cpp:434] res3a_branch1 -> res3a_branch1
I0809 14:29:57.241745 15212 net.cpp:156] Setting up res3a_branch1
I0809 14:29:57.241758 15212 net.cpp:164] Top shape: 1 512 50 50 (1280000)
I0809 14:29:57.241765 15212 layer_factory.hpp:76] Creating layer bn3a_branch1
I0809 14:29:57.241773 15212 net.cpp:111] Creating Layer bn3a_branch1
I0809 14:29:57.241777 15212 net.cpp:478] bn3a_branch1 <- res3a_branch1
I0809 14:29:57.241781 15212 net.cpp:420] bn3a_branch1 -> res3a_branch1 (in-place)
I0809 14:29:57.242496 15212 net.cpp:156] Setting up bn3a_branch1
I0809 14:29:57.242507 15212 net.cpp:164] Top shape: 1 512 50 50 (1280000)
I0809 14:29:57.242514 15212 layer_factory.hpp:76] Creating layer scale3a_branch1
I0809 14:29:57.242521 15212 net.cpp:111] Creating Layer scale3a_branch1
I0809 14:29:57.242524 15212 net.cpp:478] scale3a_branch1 <- res3a_branch1
I0809 14:29:57.242530 15212 net.cpp:420] scale3a_branch1 -> res3a_branch1 (in-place)
I0809 14:29:57.242550 15212 layer_factory.hpp:76] Creating layer scale3a_branch1
I0809 14:29:57.242605 15212 net.cpp:156] Setting up scale3a_branch1
I0809 14:29:57.242610 15212 net.cpp:164] Top shape: 1 512 50 50 (1280000)
I0809 14:29:57.242615 15212 layer_factory.hpp:76] Creating layer res3a_branch2a
I0809 14:29:57.242620 15212 net.cpp:111] Creating Layer res3a_branch2a
I0809 14:29:57.242624 15212 net.cpp:478] res3a_branch2a <- res2c_res2c_relu_0_split_1
I0809 14:29:57.242627 15212 net.cpp:434] res3a_branch2a -> res3a_branch2a
I0809 14:29:57.242668 15212 net.cpp:156] Setting up res3a_branch2a
I0809 14:29:57.242674 15212 net.cpp:164] Top shape: 1 128 50 50 (320000)
I0809 14:29:57.242678 15212 layer_factory.hpp:76] Creating layer bn3a_branch2a
I0809 14:29:57.242686 15212 net.cpp:111] Creating Layer bn3a_branch2a
I0809 14:29:57.242688 15212 net.cpp:478] bn3a_branch2a <- res3a_branch2a
I0809 14:29:57.242691 15212 net.cpp:420] bn3a_branch2a -> res3a_branch2a (in-place)
I0809 14:29:57.242754 15212 net.cpp:156] Setting up bn3a_branch2a
I0809 14:29:57.242759 15212 net.cpp:164] Top shape: 1 128 50 50 (320000)
I0809 14:29:57.242765 15212 layer_factory.hpp:76] Creating layer scale3a_branch2a
I0809 14:29:57.242770 15212 net.cpp:111] Creating Layer scale3a_branch2a
I0809 14:29:57.242774 15212 net.cpp:478] scale3a_branch2a <- res3a_branch2a
I0809 14:29:57.242779 15212 net.cpp:420] scale3a_branch2a -> res3a_branch2a (in-place)
I0809 14:29:57.242799 15212 layer_factory.hpp:76] Creating layer scale3a_branch2a
I0809 14:29:57.242844 15212 net.cpp:156] Setting up scale3a_branch2a
I0809 14:29:57.242849 15212 net.cpp:164] Top shape: 1 128 50 50 (320000)
I0809 14:29:57.242854 15212 layer_factory.hpp:76] Creating layer res3a_branch2a_relu
I0809 14:29:57.242858 15212 net.cpp:111] Creating Layer res3a_branch2a_relu
I0809 14:29:57.242861 15212 net.cpp:478] res3a_branch2a_relu <- res3a_branch2a
I0809 14:29:57.242866 15212 net.cpp:420] res3a_branch2a_relu -> res3a_branch2a (in-place)
I0809 14:29:57.242869 15212 net.cpp:156] Setting up res3a_branch2a_relu
I0809 14:29:57.242873 15212 net.cpp:164] Top shape: 1 128 50 50 (320000)
I0809 14:29:57.242875 15212 layer_factory.hpp:76] Creating layer res3a_branch2b
I0809 14:29:57.242880 15212 net.cpp:111] Creating Layer res3a_branch2b
I0809 14:29:57.242882 15212 net.cpp:478] res3a_branch2b <- res3a_branch2a
I0809 14:29:57.242888 15212 net.cpp:434] res3a_branch2b -> res3a_branch2b
I0809 14:29:57.243655 15212 net.cpp:156] Setting up res3a_branch2b
I0809 14:29:57.243669 15212 net.cpp:164] Top shape: 1 128 50 50 (320000)
I0809 14:29:57.243674 15212 layer_factory.hpp:76] Creating layer bn3a_branch2b
I0809 14:29:57.243683 15212 net.cpp:111] Creating Layer bn3a_branch2b
I0809 14:29:57.243688 15212 net.cpp:478] bn3a_branch2b <- res3a_branch2b
I0809 14:29:57.243692 15212 net.cpp:420] bn3a_branch2b -> res3a_branch2b (in-place)
I0809 14:29:57.243757 15212 net.cpp:156] Setting up bn3a_branch2b
I0809 14:29:57.243762 15212 net.cpp:164] Top shape: 1 128 50 50 (320000)
I0809 14:29:57.243769 15212 layer_factory.hpp:76] Creating layer scale3a_branch2b
I0809 14:29:57.243777 15212 net.cpp:111] Creating Layer scale3a_branch2b
I0809 14:29:57.243780 15212 net.cpp:478] scale3a_branch2b <- res3a_branch2b
I0809 14:29:57.243784 15212 net.cpp:420] scale3a_branch2b -> res3a_branch2b (in-place)
I0809 14:29:57.243808 15212 layer_factory.hpp:76] Creating layer scale3a_branch2b
I0809 14:29:57.243860 15212 net.cpp:156] Setting up scale3a_branch2b
I0809 14:29:57.243870 15212 net.cpp:164] Top shape: 1 128 50 50 (320000)
I0809 14:29:57.243877 15212 layer_factory.hpp:76] Creating layer res3a_branch2b_relu
I0809 14:29:57.243885 15212 net.cpp:111] Creating Layer res3a_branch2b_relu
I0809 14:29:57.243888 15212 net.cpp:478] res3a_branch2b_relu <- res3a_branch2b
I0809 14:29:57.243892 15212 net.cpp:420] res3a_branch2b_relu -> res3a_branch2b (in-place)
I0809 14:29:57.243897 15212 net.cpp:156] Setting up res3a_branch2b_relu
I0809 14:29:57.243901 15212 net.cpp:164] Top shape: 1 128 50 50 (320000)
I0809 14:29:57.243904 15212 layer_factory.hpp:76] Creating layer res3a_branch2c
I0809 14:29:57.243909 15212 net.cpp:111] Creating Layer res3a_branch2c
I0809 14:29:57.243913 15212 net.cpp:478] res3a_branch2c <- res3a_branch2b
I0809 14:29:57.243917 15212 net.cpp:434] res3a_branch2c -> res3a_branch2c
I0809 14:29:57.243991 15212 net.cpp:156] Setting up res3a_branch2c
I0809 14:29:57.243999 15212 net.cpp:164] Top shape: 1 512 50 50 (1280000)
I0809 14:29:57.244004 15212 layer_factory.hpp:76] Creating layer bn3a_branch2c
I0809 14:29:57.244017 15212 net.cpp:111] Creating Layer bn3a_branch2c
I0809 14:29:57.244021 15212 net.cpp:478] bn3a_branch2c <- res3a_branch2c
I0809 14:29:57.244029 15212 net.cpp:420] bn3a_branch2c -> res3a_branch2c (in-place)
I0809 14:29:57.244089 15212 net.cpp:156] Setting up bn3a_branch2c
I0809 14:29:57.244097 15212 net.cpp:164] Top shape: 1 512 50 50 (1280000)
I0809 14:29:57.244105 15212 layer_factory.hpp:76] Creating layer scale3a_branch2c
I0809 14:29:57.244112 15212 net.cpp:111] Creating Layer scale3a_branch2c
I0809 14:29:57.244117 15212 net.cpp:478] scale3a_branch2c <- res3a_branch2c
I0809 14:29:57.244120 15212 net.cpp:420] scale3a_branch2c -> res3a_branch2c (in-place)
I0809 14:29:57.244138 15212 layer_factory.hpp:76] Creating layer scale3a_branch2c
I0809 14:29:57.244191 15212 net.cpp:156] Setting up scale3a_branch2c
I0809 14:29:57.244201 15212 net.cpp:164] Top shape: 1 512 50 50 (1280000)
I0809 14:29:57.244210 15212 layer_factory.hpp:76] Creating layer res3a
I0809 14:29:57.244217 15212 net.cpp:111] Creating Layer res3a
I0809 14:29:57.244223 15212 net.cpp:478] res3a <- res3a_branch1
I0809 14:29:57.244230 15212 net.cpp:478] res3a <- res3a_branch2c
I0809 14:29:57.244237 15212 net.cpp:434] res3a -> res3a
I0809 14:29:57.244249 15212 net.cpp:156] Setting up res3a
I0809 14:29:57.244257 15212 net.cpp:164] Top shape: 1 512 50 50 (1280000)
I0809 14:29:57.244264 15212 layer_factory.hpp:76] Creating layer res3a_relu
I0809 14:29:57.244277 15212 net.cpp:111] Creating Layer res3a_relu
I0809 14:29:57.244282 15212 net.cpp:478] res3a_relu <- res3a
I0809 14:29:57.244284 15212 net.cpp:420] res3a_relu -> res3a (in-place)
I0809 14:29:57.244289 15212 net.cpp:156] Setting up res3a_relu
I0809 14:29:57.244293 15212 net.cpp:164] Top shape: 1 512 50 50 (1280000)
I0809 14:29:57.244297 15212 layer_factory.hpp:76] Creating layer res3a_res3a_relu_0_split
I0809 14:29:57.244302 15212 net.cpp:111] Creating Layer res3a_res3a_relu_0_split
I0809 14:29:57.244304 15212 net.cpp:478] res3a_res3a_relu_0_split <- res3a
I0809 14:29:57.244308 15212 net.cpp:434] res3a_res3a_relu_0_split -> res3a_res3a_relu_0_split_0
I0809 14:29:57.244318 15212 net.cpp:434] res3a_res3a_relu_0_split -> res3a_res3a_relu_0_split_1
I0809 14:29:57.244323 15212 net.cpp:156] Setting up res3a_res3a_relu_0_split
I0809 14:29:57.244328 15212 net.cpp:164] Top shape: 1 512 50 50 (1280000)
I0809 14:29:57.244333 15212 net.cpp:164] Top shape: 1 512 50 50 (1280000)
I0809 14:29:57.244335 15212 layer_factory.hpp:76] Creating layer res3b_branch2a
I0809 14:29:57.244343 15212 net.cpp:111] Creating Layer res3b_branch2a
I0809 14:29:57.244348 15212 net.cpp:478] res3b_branch2a <- res3a_res3a_relu_0_split_0
I0809 14:29:57.244351 15212 net.cpp:434] res3b_branch2a -> res3b_branch2a
I0809 14:29:57.244424 15212 net.cpp:156] Setting up res3b_branch2a
I0809 14:29:57.244432 15212 net.cpp:164] Top shape: 1 128 50 50 (320000)
I0809 14:29:57.244437 15212 layer_factory.hpp:76] Creating layer bn3b_branch2a
I0809 14:29:57.244446 15212 net.cpp:111] Creating Layer bn3b_branch2a
I0809 14:29:57.244449 15212 net.cpp:478] bn3b_branch2a <- res3b_branch2a
I0809 14:29:57.244453 15212 net.cpp:420] bn3b_branch2a -> res3b_branch2a (in-place)
I0809 14:29:57.244515 15212 net.cpp:156] Setting up bn3b_branch2a
I0809 14:29:57.244523 15212 net.cpp:164] Top shape: 1 128 50 50 (320000)
I0809 14:29:57.244529 15212 layer_factory.hpp:76] Creating layer scale3b_branch2a
I0809 14:29:57.244534 15212 net.cpp:111] Creating Layer scale3b_branch2a
I0809 14:29:57.244536 15212 net.cpp:478] scale3b_branch2a <- res3b_branch2a
I0809 14:29:57.244544 15212 net.cpp:420] scale3b_branch2a -> res3b_branch2a (in-place)
I0809 14:29:57.244568 15212 layer_factory.hpp:76] Creating layer scale3b_branch2a
I0809 14:29:57.244622 15212 net.cpp:156] Setting up scale3b_branch2a
I0809 14:29:57.244627 15212 net.cpp:164] Top shape: 1 128 50 50 (320000)
I0809 14:29:57.244632 15212 layer_factory.hpp:76] Creating layer res3b_branch2a_relu
I0809 14:29:57.244637 15212 net.cpp:111] Creating Layer res3b_branch2a_relu
I0809 14:29:57.244639 15212 net.cpp:478] res3b_branch2a_relu <- res3b_branch2a
I0809 14:29:57.244643 15212 net.cpp:420] res3b_branch2a_relu -> res3b_branch2a (in-place)
I0809 14:29:57.244647 15212 net.cpp:156] Setting up res3b_branch2a_relu
I0809 14:29:57.244650 15212 net.cpp:164] Top shape: 1 128 50 50 (320000)
I0809 14:29:57.244653 15212 layer_factory.hpp:76] Creating layer res3b_branch2b
I0809 14:29:57.244657 15212 net.cpp:111] Creating Layer res3b_branch2b
I0809 14:29:57.244660 15212 net.cpp:478] res3b_branch2b <- res3b_branch2a
I0809 14:29:57.244664 15212 net.cpp:434] res3b_branch2b -> res3b_branch2b
I0809 14:29:57.245426 15212 net.cpp:156] Setting up res3b_branch2b
I0809 14:29:57.245436 15212 net.cpp:164] Top shape: 1 128 50 50 (320000)
I0809 14:29:57.245441 15212 layer_factory.hpp:76] Creating layer bn3b_branch2b
I0809 14:29:57.245450 15212 net.cpp:111] Creating Layer bn3b_branch2b
I0809 14:29:57.245453 15212 net.cpp:478] bn3b_branch2b <- res3b_branch2b
I0809 14:29:57.245457 15212 net.cpp:420] bn3b_branch2b -> res3b_branch2b (in-place)
I0809 14:29:57.245518 15212 net.cpp:156] Setting up bn3b_branch2b
I0809 14:29:57.245524 15212 net.cpp:164] Top shape: 1 128 50 50 (320000)
I0809 14:29:57.245530 15212 layer_factory.hpp:76] Creating layer scale3b_branch2b
I0809 14:29:57.245535 15212 net.cpp:111] Creating Layer scale3b_branch2b
I0809 14:29:57.245538 15212 net.cpp:478] scale3b_branch2b <- res3b_branch2b
I0809 14:29:57.245543 15212 net.cpp:420] scale3b_branch2b -> res3b_branch2b (in-place)
I0809 14:29:57.245564 15212 layer_factory.hpp:76] Creating layer scale3b_branch2b
I0809 14:29:57.245609 15212 net.cpp:156] Setting up scale3b_branch2b
I0809 14:29:57.245615 15212 net.cpp:164] Top shape: 1 128 50 50 (320000)
I0809 14:29:57.245620 15212 layer_factory.hpp:76] Creating layer res3b_branch2b_relu
I0809 14:29:57.245630 15212 net.cpp:111] Creating Layer res3b_branch2b_relu
I0809 14:29:57.245636 15212 net.cpp:478] res3b_branch2b_relu <- res3b_branch2b
I0809 14:29:57.245642 15212 net.cpp:420] res3b_branch2b_relu -> res3b_branch2b (in-place)
I0809 14:29:57.245649 15212 net.cpp:156] Setting up res3b_branch2b_relu
I0809 14:29:57.245656 15212 net.cpp:164] Top shape: 1 128 50 50 (320000)
I0809 14:29:57.245661 15212 layer_factory.hpp:76] Creating layer res3b_branch2c
I0809 14:29:57.245666 15212 net.cpp:111] Creating Layer res3b_branch2c
I0809 14:29:57.245668 15212 net.cpp:478] res3b_branch2c <- res3b_branch2b
I0809 14:29:57.245672 15212 net.cpp:434] res3b_branch2c -> res3b_branch2c
I0809 14:29:57.246373 15212 net.cpp:156] Setting up res3b_branch2c
I0809 14:29:57.246383 15212 net.cpp:164] Top shape: 1 512 50 50 (1280000)
I0809 14:29:57.246388 15212 layer_factory.hpp:76] Creating layer bn3b_branch2c
I0809 14:29:57.246393 15212 net.cpp:111] Creating Layer bn3b_branch2c
I0809 14:29:57.246397 15212 net.cpp:478] bn3b_branch2c <- res3b_branch2c
I0809 14:29:57.246403 15212 net.cpp:420] bn3b_branch2c -> res3b_branch2c (in-place)
I0809 14:29:57.246469 15212 net.cpp:156] Setting up bn3b_branch2c
I0809 14:29:57.246474 15212 net.cpp:164] Top shape: 1 512 50 50 (1280000)
I0809 14:29:57.246481 15212 layer_factory.hpp:76] Creating layer scale3b_branch2c
I0809 14:29:57.246486 15212 net.cpp:111] Creating Layer scale3b_branch2c
I0809 14:29:57.246490 15212 net.cpp:478] scale3b_branch2c <- res3b_branch2c
I0809 14:29:57.246493 15212 net.cpp:420] scale3b_branch2c -> res3b_branch2c (in-place)
I0809 14:29:57.246511 15212 layer_factory.hpp:76] Creating layer scale3b_branch2c
I0809 14:29:57.246556 15212 net.cpp:156] Setting up scale3b_branch2c
I0809 14:29:57.246562 15212 net.cpp:164] Top shape: 1 512 50 50 (1280000)
I0809 14:29:57.246567 15212 layer_factory.hpp:76] Creating layer res3b
I0809 14:29:57.246572 15212 net.cpp:111] Creating Layer res3b
I0809 14:29:57.246574 15212 net.cpp:478] res3b <- res3a_res3a_relu_0_split_1
I0809 14:29:57.246577 15212 net.cpp:478] res3b <- res3b_branch2c
I0809 14:29:57.246582 15212 net.cpp:434] res3b -> res3b
I0809 14:29:57.246587 15212 net.cpp:156] Setting up res3b
I0809 14:29:57.246590 15212 net.cpp:164] Top shape: 1 512 50 50 (1280000)
I0809 14:29:57.246593 15212 layer_factory.hpp:76] Creating layer res3b_relu
I0809 14:29:57.246599 15212 net.cpp:111] Creating Layer res3b_relu
I0809 14:29:57.246603 15212 net.cpp:478] res3b_relu <- res3b
I0809 14:29:57.246605 15212 net.cpp:420] res3b_relu -> res3b (in-place)
I0809 14:29:57.246610 15212 net.cpp:156] Setting up res3b_relu
I0809 14:29:57.246613 15212 net.cpp:164] Top shape: 1 512 50 50 (1280000)
I0809 14:29:57.246616 15212 layer_factory.hpp:76] Creating layer res3b_res3b_relu_0_split
I0809 14:29:57.246620 15212 net.cpp:111] Creating Layer res3b_res3b_relu_0_split
I0809 14:29:57.246623 15212 net.cpp:478] res3b_res3b_relu_0_split <- res3b
I0809 14:29:57.246626 15212 net.cpp:434] res3b_res3b_relu_0_split -> res3b_res3b_relu_0_split_0
I0809 14:29:57.246631 15212 net.cpp:434] res3b_res3b_relu_0_split -> res3b_res3b_relu_0_split_1
I0809 14:29:57.246636 15212 net.cpp:156] Setting up res3b_res3b_relu_0_split
I0809 14:29:57.246639 15212 net.cpp:164] Top shape: 1 512 50 50 (1280000)
I0809 14:29:57.246642 15212 net.cpp:164] Top shape: 1 512 50 50 (1280000)
I0809 14:29:57.246645 15212 layer_factory.hpp:76] Creating layer res3c_branch2a
I0809 14:29:57.246651 15212 net.cpp:111] Creating Layer res3c_branch2a
I0809 14:29:57.246654 15212 net.cpp:478] res3c_branch2a <- res3b_res3b_relu_0_split_0
I0809 14:29:57.246657 15212 net.cpp:434] res3c_branch2a -> res3c_branch2a
I0809 14:29:57.246723 15212 net.cpp:156] Setting up res3c_branch2a
I0809 14:29:57.246731 15212 net.cpp:164] Top shape: 1 128 50 50 (320000)
I0809 14:29:57.246734 15212 layer_factory.hpp:76] Creating layer bn3c_branch2a
I0809 14:29:57.246739 15212 net.cpp:111] Creating Layer bn3c_branch2a
I0809 14:29:57.246742 15212 net.cpp:478] bn3c_branch2a <- res3c_branch2a
I0809 14:29:57.246748 15212 net.cpp:420] bn3c_branch2a -> res3c_branch2a (in-place)
I0809 14:29:57.246809 15212 net.cpp:156] Setting up bn3c_branch2a
I0809 14:29:57.246815 15212 net.cpp:164] Top shape: 1 128 50 50 (320000)
I0809 14:29:57.246821 15212 layer_factory.hpp:76] Creating layer scale3c_branch2a
I0809 14:29:57.246825 15212 net.cpp:111] Creating Layer scale3c_branch2a
I0809 14:29:57.246829 15212 net.cpp:478] scale3c_branch2a <- res3c_branch2a
I0809 14:29:57.246831 15212 net.cpp:420] scale3c_branch2a -> res3c_branch2a (in-place)
I0809 14:29:57.246855 15212 layer_factory.hpp:76] Creating layer scale3c_branch2a
I0809 14:29:57.246901 15212 net.cpp:156] Setting up scale3c_branch2a
I0809 14:29:57.246906 15212 net.cpp:164] Top shape: 1 128 50 50 (320000)
I0809 14:29:57.246917 15212 layer_factory.hpp:76] Creating layer res3c_branch2a_relu
I0809 14:29:57.246923 15212 net.cpp:111] Creating Layer res3c_branch2a_relu
I0809 14:29:57.246927 15212 net.cpp:478] res3c_branch2a_relu <- res3c_branch2a
I0809 14:29:57.246929 15212 net.cpp:420] res3c_branch2a_relu -> res3c_branch2a (in-place)
I0809 14:29:57.246934 15212 net.cpp:156] Setting up res3c_branch2a_relu
I0809 14:29:57.246937 15212 net.cpp:164] Top shape: 1 128 50 50 (320000)
I0809 14:29:57.246940 15212 layer_factory.hpp:76] Creating layer res3c_branch2b
I0809 14:29:57.246945 15212 net.cpp:111] Creating Layer res3c_branch2b
I0809 14:29:57.246948 15212 net.cpp:478] res3c_branch2b <- res3c_branch2a
I0809 14:29:57.246951 15212 net.cpp:434] res3c_branch2b -> res3c_branch2b
I0809 14:29:57.247712 15212 net.cpp:156] Setting up res3c_branch2b
I0809 14:29:57.247722 15212 net.cpp:164] Top shape: 1 128 50 50 (320000)
I0809 14:29:57.247727 15212 layer_factory.hpp:76] Creating layer bn3c_branch2b
I0809 14:29:57.247732 15212 net.cpp:111] Creating Layer bn3c_branch2b
I0809 14:29:57.247735 15212 net.cpp:478] bn3c_branch2b <- res3c_branch2b
I0809 14:29:57.247745 15212 net.cpp:420] bn3c_branch2b -> res3c_branch2b (in-place)
I0809 14:29:57.247817 15212 net.cpp:156] Setting up bn3c_branch2b
I0809 14:29:57.247823 15212 net.cpp:164] Top shape: 1 128 50 50 (320000)
I0809 14:29:57.247830 15212 layer_factory.hpp:76] Creating layer scale3c_branch2b
I0809 14:29:57.247835 15212 net.cpp:111] Creating Layer scale3c_branch2b
I0809 14:29:57.247838 15212 net.cpp:478] scale3c_branch2b <- res3c_branch2b
I0809 14:29:57.247843 15212 net.cpp:420] scale3c_branch2b -> res3c_branch2b (in-place)
I0809 14:29:57.247864 15212 layer_factory.hpp:76] Creating layer scale3c_branch2b
I0809 14:29:57.247910 15212 net.cpp:156] Setting up scale3c_branch2b
I0809 14:29:57.247915 15212 net.cpp:164] Top shape: 1 128 50 50 (320000)
I0809 14:29:57.247920 15212 layer_factory.hpp:76] Creating layer res3c_branch2b_relu
I0809 14:29:57.247925 15212 net.cpp:111] Creating Layer res3c_branch2b_relu
I0809 14:29:57.247928 15212 net.cpp:478] res3c_branch2b_relu <- res3c_branch2b
I0809 14:29:57.247934 15212 net.cpp:420] res3c_branch2b_relu -> res3c_branch2b (in-place)
I0809 14:29:57.247938 15212 net.cpp:156] Setting up res3c_branch2b_relu
I0809 14:29:57.247942 15212 net.cpp:164] Top shape: 1 128 50 50 (320000)
I0809 14:29:57.247944 15212 layer_factory.hpp:76] Creating layer res3c_branch2c
I0809 14:29:57.247949 15212 net.cpp:111] Creating Layer res3c_branch2c
I0809 14:29:57.247951 15212 net.cpp:478] res3c_branch2c <- res3c_branch2b
I0809 14:29:57.247956 15212 net.cpp:434] res3c_branch2c -> res3c_branch2c
I0809 14:29:57.248013 15212 net.cpp:156] Setting up res3c_branch2c
I0809 14:29:57.248019 15212 net.cpp:164] Top shape: 1 512 50 50 (1280000)
I0809 14:29:57.248023 15212 layer_factory.hpp:76] Creating layer bn3c_branch2c
I0809 14:29:57.248030 15212 net.cpp:111] Creating Layer bn3c_branch2c
I0809 14:29:57.248034 15212 net.cpp:478] bn3c_branch2c <- res3c_branch2c
I0809 14:29:57.248036 15212 net.cpp:420] bn3c_branch2c -> res3c_branch2c (in-place)
I0809 14:29:57.248100 15212 net.cpp:156] Setting up bn3c_branch2c
I0809 14:29:57.248105 15212 net.cpp:164] Top shape: 1 512 50 50 (1280000)
I0809 14:29:57.248111 15212 layer_factory.hpp:76] Creating layer scale3c_branch2c
I0809 14:29:57.248116 15212 net.cpp:111] Creating Layer scale3c_branch2c
I0809 14:29:57.248118 15212 net.cpp:478] scale3c_branch2c <- res3c_branch2c
I0809 14:29:57.248122 15212 net.cpp:420] scale3c_branch2c -> res3c_branch2c (in-place)
I0809 14:29:57.248142 15212 layer_factory.hpp:76] Creating layer scale3c_branch2c
I0809 14:29:57.248185 15212 net.cpp:156] Setting up scale3c_branch2c
I0809 14:29:57.248191 15212 net.cpp:164] Top shape: 1 512 50 50 (1280000)
I0809 14:29:57.248195 15212 layer_factory.hpp:76] Creating layer res3c
I0809 14:29:57.248203 15212 net.cpp:111] Creating Layer res3c
I0809 14:29:57.248205 15212 net.cpp:478] res3c <- res3b_res3b_relu_0_split_1
I0809 14:29:57.248209 15212 net.cpp:478] res3c <- res3c_branch2c
I0809 14:29:57.248212 15212 net.cpp:434] res3c -> res3c
I0809 14:29:57.248219 15212 net.cpp:156] Setting up res3c
I0809 14:29:57.248221 15212 net.cpp:164] Top shape: 1 512 50 50 (1280000)
I0809 14:29:57.248224 15212 layer_factory.hpp:76] Creating layer res3c_relu
I0809 14:29:57.248229 15212 net.cpp:111] Creating Layer res3c_relu
I0809 14:29:57.248231 15212 net.cpp:478] res3c_relu <- res3c
I0809 14:29:57.248234 15212 net.cpp:420] res3c_relu -> res3c (in-place)
I0809 14:29:57.248239 15212 net.cpp:156] Setting up res3c_relu
I0809 14:29:57.248242 15212 net.cpp:164] Top shape: 1 512 50 50 (1280000)
I0809 14:29:57.248245 15212 layer_factory.hpp:76] Creating layer res3c_res3c_relu_0_split
I0809 14:29:57.248248 15212 net.cpp:111] Creating Layer res3c_res3c_relu_0_split
I0809 14:29:57.248251 15212 net.cpp:478] res3c_res3c_relu_0_split <- res3c
I0809 14:29:57.248255 15212 net.cpp:434] res3c_res3c_relu_0_split -> res3c_res3c_relu_0_split_0
I0809 14:29:57.248261 15212 net.cpp:434] res3c_res3c_relu_0_split -> res3c_res3c_relu_0_split_1
I0809 14:29:57.248266 15212 net.cpp:156] Setting up res3c_res3c_relu_0_split
I0809 14:29:57.248270 15212 net.cpp:164] Top shape: 1 512 50 50 (1280000)
I0809 14:29:57.248273 15212 net.cpp:164] Top shape: 1 512 50 50 (1280000)
I0809 14:29:57.248276 15212 layer_factory.hpp:76] Creating layer res3d_branch2a
I0809 14:29:57.248281 15212 net.cpp:111] Creating Layer res3d_branch2a
I0809 14:29:57.248283 15212 net.cpp:478] res3d_branch2a <- res3c_res3c_relu_0_split_0
I0809 14:29:57.248287 15212 net.cpp:434] res3d_branch2a -> res3d_branch2a
I0809 14:29:57.248338 15212 net.cpp:156] Setting up res3d_branch2a
I0809 14:29:57.248344 15212 net.cpp:164] Top shape: 1 128 50 50 (320000)
I0809 14:29:57.248349 15212 layer_factory.hpp:76] Creating layer bn3d_branch2a
I0809 14:29:57.248358 15212 net.cpp:111] Creating Layer bn3d_branch2a
I0809 14:29:57.248360 15212 net.cpp:478] bn3d_branch2a <- res3d_branch2a
I0809 14:29:57.248363 15212 net.cpp:420] bn3d_branch2a -> res3d_branch2a (in-place)
I0809 14:29:57.248425 15212 net.cpp:156] Setting up bn3d_branch2a
I0809 14:29:57.248430 15212 net.cpp:164] Top shape: 1 128 50 50 (320000)
I0809 14:29:57.248456 15212 layer_factory.hpp:76] Creating layer scale3d_branch2a
I0809 14:29:57.248461 15212 net.cpp:111] Creating Layer scale3d_branch2a
I0809 14:29:57.248464 15212 net.cpp:478] scale3d_branch2a <- res3d_branch2a
I0809 14:29:57.248469 15212 net.cpp:420] scale3d_branch2a -> res3d_branch2a (in-place)
I0809 14:29:57.248492 15212 layer_factory.hpp:76] Creating layer scale3d_branch2a
I0809 14:29:57.248536 15212 net.cpp:156] Setting up scale3d_branch2a
I0809 14:29:57.248541 15212 net.cpp:164] Top shape: 1 128 50 50 (320000)
I0809 14:29:57.248548 15212 layer_factory.hpp:76] Creating layer res3d_branch2a_relu
I0809 14:29:57.248551 15212 net.cpp:111] Creating Layer res3d_branch2a_relu
I0809 14:29:57.248554 15212 net.cpp:478] res3d_branch2a_relu <- res3d_branch2a
I0809 14:29:57.248559 15212 net.cpp:420] res3d_branch2a_relu -> res3d_branch2a (in-place)
I0809 14:29:57.248564 15212 net.cpp:156] Setting up res3d_branch2a_relu
I0809 14:29:57.248567 15212 net.cpp:164] Top shape: 1 128 50 50 (320000)
I0809 14:29:57.248569 15212 layer_factory.hpp:76] Creating layer res3d_branch2b
I0809 14:29:57.248574 15212 net.cpp:111] Creating Layer res3d_branch2b
I0809 14:29:57.248577 15212 net.cpp:478] res3d_branch2b <- res3d_branch2a
I0809 14:29:57.248581 15212 net.cpp:434] res3d_branch2b -> res3d_branch2b
I0809 14:29:57.249348 15212 net.cpp:156] Setting up res3d_branch2b
I0809 14:29:57.249361 15212 net.cpp:164] Top shape: 1 128 50 50 (320000)
I0809 14:29:57.249366 15212 layer_factory.hpp:76] Creating layer bn3d_branch2b
I0809 14:29:57.249372 15212 net.cpp:111] Creating Layer bn3d_branch2b
I0809 14:29:57.249374 15212 net.cpp:478] bn3d_branch2b <- res3d_branch2b
I0809 14:29:57.249379 15212 net.cpp:420] bn3d_branch2b -> res3d_branch2b (in-place)
I0809 14:29:57.249445 15212 net.cpp:156] Setting up bn3d_branch2b
I0809 14:29:57.249451 15212 net.cpp:164] Top shape: 1 128 50 50 (320000)
I0809 14:29:57.249459 15212 layer_factory.hpp:76] Creating layer scale3d_branch2b
I0809 14:29:57.249464 15212 net.cpp:111] Creating Layer scale3d_branch2b
I0809 14:29:57.249467 15212 net.cpp:478] scale3d_branch2b <- res3d_branch2b
I0809 14:29:57.249471 15212 net.cpp:420] scale3d_branch2b -> res3d_branch2b (in-place)
I0809 14:29:57.249492 15212 layer_factory.hpp:76] Creating layer scale3d_branch2b
I0809 14:29:57.249538 15212 net.cpp:156] Setting up scale3d_branch2b
I0809 14:29:57.249543 15212 net.cpp:164] Top shape: 1 128 50 50 (320000)
I0809 14:29:57.249548 15212 layer_factory.hpp:76] Creating layer res3d_branch2b_relu
I0809 14:29:57.249553 15212 net.cpp:111] Creating Layer res3d_branch2b_relu
I0809 14:29:57.249555 15212 net.cpp:478] res3d_branch2b_relu <- res3d_branch2b
I0809 14:29:57.249559 15212 net.cpp:420] res3d_branch2b_relu -> res3d_branch2b (in-place)
I0809 14:29:57.249563 15212 net.cpp:156] Setting up res3d_branch2b_relu
I0809 14:29:57.249567 15212 net.cpp:164] Top shape: 1 128 50 50 (320000)
I0809 14:29:57.249570 15212 layer_factory.hpp:76] Creating layer res3d_branch2c
I0809 14:29:57.249577 15212 net.cpp:111] Creating Layer res3d_branch2c
I0809 14:29:57.249579 15212 net.cpp:478] res3d_branch2c <- res3d_branch2b
I0809 14:29:57.249583 15212 net.cpp:434] res3d_branch2c -> res3d_branch2c
I0809 14:29:57.250303 15212 net.cpp:156] Setting up res3d_branch2c
I0809 14:29:57.250313 15212 net.cpp:164] Top shape: 1 512 50 50 (1280000)
I0809 14:29:57.250318 15212 layer_factory.hpp:76] Creating layer bn3d_branch2c
I0809 14:29:57.250324 15212 net.cpp:111] Creating Layer bn3d_branch2c
I0809 14:29:57.250326 15212 net.cpp:478] bn3d_branch2c <- res3d_branch2c
I0809 14:29:57.250330 15212 net.cpp:420] bn3d_branch2c -> res3d_branch2c (in-place)
I0809 14:29:57.250398 15212 net.cpp:156] Setting up bn3d_branch2c
I0809 14:29:57.250404 15212 net.cpp:164] Top shape: 1 512 50 50 (1280000)
I0809 14:29:57.250411 15212 layer_factory.hpp:76] Creating layer scale3d_branch2c
I0809 14:29:57.250417 15212 net.cpp:111] Creating Layer scale3d_branch2c
I0809 14:29:57.250421 15212 net.cpp:478] scale3d_branch2c <- res3d_branch2c
I0809 14:29:57.250424 15212 net.cpp:420] scale3d_branch2c -> res3d_branch2c (in-place)
I0809 14:29:57.250442 15212 layer_factory.hpp:76] Creating layer scale3d_branch2c
I0809 14:29:57.250489 15212 net.cpp:156] Setting up scale3d_branch2c
I0809 14:29:57.250495 15212 net.cpp:164] Top shape: 1 512 50 50 (1280000)
I0809 14:29:57.250500 15212 layer_factory.hpp:76] Creating layer res3d
I0809 14:29:57.250504 15212 net.cpp:111] Creating Layer res3d
I0809 14:29:57.250507 15212 net.cpp:478] res3d <- res3c_res3c_relu_0_split_1
I0809 14:29:57.250511 15212 net.cpp:478] res3d <- res3d_branch2c
I0809 14:29:57.250515 15212 net.cpp:434] res3d -> res3d
I0809 14:29:57.250520 15212 net.cpp:156] Setting up res3d
I0809 14:29:57.250524 15212 net.cpp:164] Top shape: 1 512 50 50 (1280000)
I0809 14:29:57.250527 15212 layer_factory.hpp:76] Creating layer res3d_relu
I0809 14:29:57.250531 15212 net.cpp:111] Creating Layer res3d_relu
I0809 14:29:57.250533 15212 net.cpp:478] res3d_relu <- res3d
I0809 14:29:57.250540 15212 net.cpp:420] res3d_relu -> res3d (in-place)
I0809 14:29:57.250543 15212 net.cpp:156] Setting up res3d_relu
I0809 14:29:57.250546 15212 net.cpp:164] Top shape: 1 512 50 50 (1280000)
I0809 14:29:57.250550 15212 layer_factory.hpp:76] Creating layer res3d_res3d_relu_0_split
I0809 14:29:57.250553 15212 net.cpp:111] Creating Layer res3d_res3d_relu_0_split
I0809 14:29:57.250556 15212 net.cpp:478] res3d_res3d_relu_0_split <- res3d
I0809 14:29:57.250560 15212 net.cpp:434] res3d_res3d_relu_0_split -> res3d_res3d_relu_0_split_0
I0809 14:29:57.250564 15212 net.cpp:434] res3d_res3d_relu_0_split -> res3d_res3d_relu_0_split_1
I0809 14:29:57.250569 15212 net.cpp:156] Setting up res3d_res3d_relu_0_split
I0809 14:29:57.250573 15212 net.cpp:164] Top shape: 1 512 50 50 (1280000)
I0809 14:29:57.250576 15212 net.cpp:164] Top shape: 1 512 50 50 (1280000)
I0809 14:29:57.250579 15212 layer_factory.hpp:76] Creating layer res4a_branch1
I0809 14:29:57.250583 15212 net.cpp:111] Creating Layer res4a_branch1
I0809 14:29:57.250586 15212 net.cpp:478] res4a_branch1 <- res3d_res3d_relu_0_split_0
I0809 14:29:57.250591 15212 net.cpp:434] res4a_branch1 -> res4a_branch1
I0809 14:29:57.252104 15212 net.cpp:156] Setting up res4a_branch1
I0809 14:29:57.252115 15212 net.cpp:164] Top shape: 1 1024 25 25 (640000)
I0809 14:29:57.252120 15212 layer_factory.hpp:76] Creating layer bn4a_branch1
I0809 14:29:57.252127 15212 net.cpp:111] Creating Layer bn4a_branch1
I0809 14:29:57.252131 15212 net.cpp:478] bn4a_branch1 <- res4a_branch1
I0809 14:29:57.252135 15212 net.cpp:420] bn4a_branch1 -> res4a_branch1 (in-place)
I0809 14:29:57.252202 15212 net.cpp:156] Setting up bn4a_branch1
I0809 14:29:57.252207 15212 net.cpp:164] Top shape: 1 1024 25 25 (640000)
I0809 14:29:57.252214 15212 layer_factory.hpp:76] Creating layer scale4a_branch1
I0809 14:29:57.252219 15212 net.cpp:111] Creating Layer scale4a_branch1
I0809 14:29:57.252223 15212 net.cpp:478] scale4a_branch1 <- res4a_branch1
I0809 14:29:57.252226 15212 net.cpp:420] scale4a_branch1 -> res4a_branch1 (in-place)
I0809 14:29:57.252254 15212 layer_factory.hpp:76] Creating layer scale4a_branch1
I0809 14:29:57.252292 15212 net.cpp:156] Setting up scale4a_branch1
I0809 14:29:57.252297 15212 net.cpp:164] Top shape: 1 1024 25 25 (640000)
I0809 14:29:57.252302 15212 layer_factory.hpp:76] Creating layer res4a_branch2a
I0809 14:29:57.252311 15212 net.cpp:111] Creating Layer res4a_branch2a
I0809 14:29:57.252315 15212 net.cpp:478] res4a_branch2a <- res3d_res3d_relu_0_split_1
I0809 14:29:57.252318 15212 net.cpp:434] res4a_branch2a -> res4a_branch2a
I0809 14:29:57.252457 15212 net.cpp:156] Setting up res4a_branch2a
I0809 14:29:57.252463 15212 net.cpp:164] Top shape: 1 256 25 25 (160000)
I0809 14:29:57.252467 15212 layer_factory.hpp:76] Creating layer bn4a_branch2a
I0809 14:29:57.252472 15212 net.cpp:111] Creating Layer bn4a_branch2a
I0809 14:29:57.252475 15212 net.cpp:478] bn4a_branch2a <- res4a_branch2a
I0809 14:29:57.252481 15212 net.cpp:420] bn4a_branch2a -> res4a_branch2a (in-place)
I0809 14:29:57.252542 15212 net.cpp:156] Setting up bn4a_branch2a
I0809 14:29:57.252547 15212 net.cpp:164] Top shape: 1 256 25 25 (160000)
I0809 14:29:57.252553 15212 layer_factory.hpp:76] Creating layer scale4a_branch2a
I0809 14:29:57.252560 15212 net.cpp:111] Creating Layer scale4a_branch2a
I0809 14:29:57.252563 15212 net.cpp:478] scale4a_branch2a <- res4a_branch2a
I0809 14:29:57.252566 15212 net.cpp:420] scale4a_branch2a -> res4a_branch2a (in-place)
I0809 14:29:57.252589 15212 layer_factory.hpp:76] Creating layer scale4a_branch2a
I0809 14:29:57.252629 15212 net.cpp:156] Setting up scale4a_branch2a
I0809 14:29:57.252634 15212 net.cpp:164] Top shape: 1 256 25 25 (160000)
I0809 14:29:57.252638 15212 layer_factory.hpp:76] Creating layer res4a_branch2a_relu
I0809 14:29:57.252642 15212 net.cpp:111] Creating Layer res4a_branch2a_relu
I0809 14:29:57.252645 15212 net.cpp:478] res4a_branch2a_relu <- res4a_branch2a
I0809 14:29:57.252651 15212 net.cpp:420] res4a_branch2a_relu -> res4a_branch2a (in-place)
I0809 14:29:57.252656 15212 net.cpp:156] Setting up res4a_branch2a_relu
I0809 14:29:57.252660 15212 net.cpp:164] Top shape: 1 256 25 25 (160000)
I0809 14:29:57.252662 15212 layer_factory.hpp:76] Creating layer res4a_branch2b
I0809 14:29:57.252667 15212 net.cpp:111] Creating Layer res4a_branch2b
I0809 14:29:57.252671 15212 net.cpp:478] res4a_branch2b <- res4a_branch2a
I0809 14:29:57.252674 15212 net.cpp:434] res4a_branch2b -> res4a_branch2b
I0809 14:29:57.254489 15212 net.cpp:156] Setting up res4a_branch2b
I0809 14:29:57.254514 15212 net.cpp:164] Top shape: 1 256 25 25 (160000)
I0809 14:29:57.254521 15212 layer_factory.hpp:76] Creating layer bn4a_branch2b
I0809 14:29:57.254529 15212 net.cpp:111] Creating Layer bn4a_branch2b
I0809 14:29:57.254534 15212 net.cpp:478] bn4a_branch2b <- res4a_branch2b
I0809 14:29:57.254539 15212 net.cpp:420] bn4a_branch2b -> res4a_branch2b (in-place)
I0809 14:29:57.254623 15212 net.cpp:156] Setting up bn4a_branch2b
I0809 14:29:57.254629 15212 net.cpp:164] Top shape: 1 256 25 25 (160000)
I0809 14:29:57.254637 15212 layer_factory.hpp:76] Creating layer scale4a_branch2b
I0809 14:29:57.254644 15212 net.cpp:111] Creating Layer scale4a_branch2b
I0809 14:29:57.254647 15212 net.cpp:478] scale4a_branch2b <- res4a_branch2b
I0809 14:29:57.254652 15212 net.cpp:420] scale4a_branch2b -> res4a_branch2b (in-place)
I0809 14:29:57.254675 15212 layer_factory.hpp:76] Creating layer scale4a_branch2b
I0809 14:29:57.254720 15212 net.cpp:156] Setting up scale4a_branch2b
I0809 14:29:57.254725 15212 net.cpp:164] Top shape: 1 256 25 25 (160000)
I0809 14:29:57.254730 15212 layer_factory.hpp:76] Creating layer res4a_branch2b_relu
I0809 14:29:57.254735 15212 net.cpp:111] Creating Layer res4a_branch2b_relu
I0809 14:29:57.254739 15212 net.cpp:478] res4a_branch2b_relu <- res4a_branch2b
I0809 14:29:57.254743 15212 net.cpp:420] res4a_branch2b_relu -> res4a_branch2b (in-place)
I0809 14:29:57.254748 15212 net.cpp:156] Setting up res4a_branch2b_relu
I0809 14:29:57.254751 15212 net.cpp:164] Top shape: 1 256 25 25 (160000)
I0809 14:29:57.254755 15212 layer_factory.hpp:76] Creating layer res4a_branch2c
I0809 14:29:57.254760 15212 net.cpp:111] Creating Layer res4a_branch2c
I0809 14:29:57.254762 15212 net.cpp:478] res4a_branch2c <- res4a_branch2b
I0809 14:29:57.254768 15212 net.cpp:434] res4a_branch2c -> res4a_branch2c
I0809 14:29:57.255651 15212 net.cpp:156] Setting up res4a_branch2c
I0809 14:29:57.255661 15212 net.cpp:164] Top shape: 1 1024 25 25 (640000)
I0809 14:29:57.255666 15212 layer_factory.hpp:76] Creating layer bn4a_branch2c
I0809 14:29:57.255676 15212 net.cpp:111] Creating Layer bn4a_branch2c
I0809 14:29:57.255679 15212 net.cpp:478] bn4a_branch2c <- res4a_branch2c
I0809 14:29:57.255684 15212 net.cpp:420] bn4a_branch2c -> res4a_branch2c (in-place)
I0809 14:29:57.255748 15212 net.cpp:156] Setting up bn4a_branch2c
I0809 14:29:57.255754 15212 net.cpp:164] Top shape: 1 1024 25 25 (640000)
I0809 14:29:57.255761 15212 layer_factory.hpp:76] Creating layer scale4a_branch2c
I0809 14:29:57.255767 15212 net.cpp:111] Creating Layer scale4a_branch2c
I0809 14:29:57.255769 15212 net.cpp:478] scale4a_branch2c <- res4a_branch2c
I0809 14:29:57.255774 15212 net.cpp:420] scale4a_branch2c -> res4a_branch2c (in-place)
I0809 14:29:57.255798 15212 layer_factory.hpp:76] Creating layer scale4a_branch2c
I0809 14:29:57.255843 15212 net.cpp:156] Setting up scale4a_branch2c
I0809 14:29:57.255848 15212 net.cpp:164] Top shape: 1 1024 25 25 (640000)
I0809 14:29:57.255853 15212 layer_factory.hpp:76] Creating layer res4a
I0809 14:29:57.255861 15212 net.cpp:111] Creating Layer res4a
I0809 14:29:57.255864 15212 net.cpp:478] res4a <- res4a_branch1
I0809 14:29:57.255867 15212 net.cpp:478] res4a <- res4a_branch2c
I0809 14:29:57.255872 15212 net.cpp:434] res4a -> res4a
I0809 14:29:57.255878 15212 net.cpp:156] Setting up res4a
I0809 14:29:57.255882 15212 net.cpp:164] Top shape: 1 1024 25 25 (640000)
I0809 14:29:57.255885 15212 layer_factory.hpp:76] Creating layer res4a_relu
I0809 14:29:57.255889 15212 net.cpp:111] Creating Layer res4a_relu
I0809 14:29:57.255892 15212 net.cpp:478] res4a_relu <- res4a
I0809 14:29:57.255895 15212 net.cpp:420] res4a_relu -> res4a (in-place)
I0809 14:29:57.255899 15212 net.cpp:156] Setting up res4a_relu
I0809 14:29:57.255903 15212 net.cpp:164] Top shape: 1 1024 25 25 (640000)
I0809 14:29:57.255906 15212 layer_factory.hpp:76] Creating layer res4a_res4a_relu_0_split
I0809 14:29:57.255910 15212 net.cpp:111] Creating Layer res4a_res4a_relu_0_split
I0809 14:29:57.255913 15212 net.cpp:478] res4a_res4a_relu_0_split <- res4a
I0809 14:29:57.255916 15212 net.cpp:434] res4a_res4a_relu_0_split -> res4a_res4a_relu_0_split_0
I0809 14:29:57.255923 15212 net.cpp:434] res4a_res4a_relu_0_split -> res4a_res4a_relu_0_split_1
I0809 14:29:57.255929 15212 net.cpp:156] Setting up res4a_res4a_relu_0_split
I0809 14:29:57.255933 15212 net.cpp:164] Top shape: 1 1024 25 25 (640000)
I0809 14:29:57.255935 15212 net.cpp:164] Top shape: 1 1024 25 25 (640000)
I0809 14:29:57.255939 15212 layer_factory.hpp:76] Creating layer res4b_branch2a
I0809 14:29:57.255960 15212 net.cpp:111] Creating Layer res4b_branch2a
I0809 14:29:57.255964 15212 net.cpp:478] res4b_branch2a <- res4a_res4a_relu_0_split_0
I0809 14:29:57.255967 15212 net.cpp:434] res4b_branch2a -> res4b_branch2a
I0809 14:29:57.256796 15212 net.cpp:156] Setting up res4b_branch2a
I0809 14:29:57.256806 15212 net.cpp:164] Top shape: 1 256 25 25 (160000)
I0809 14:29:57.256813 15212 layer_factory.hpp:76] Creating layer bn4b_branch2a
I0809 14:29:57.256819 15212 net.cpp:111] Creating Layer bn4b_branch2a
I0809 14:29:57.256821 15212 net.cpp:478] bn4b_branch2a <- res4b_branch2a
I0809 14:29:57.256829 15212 net.cpp:420] bn4b_branch2a -> res4b_branch2a (in-place)
I0809 14:29:57.256893 15212 net.cpp:156] Setting up bn4b_branch2a
I0809 14:29:57.256899 15212 net.cpp:164] Top shape: 1 256 25 25 (160000)
I0809 14:29:57.256906 15212 layer_factory.hpp:76] Creating layer scale4b_branch2a
I0809 14:29:57.256913 15212 net.cpp:111] Creating Layer scale4b_branch2a
I0809 14:29:57.256916 15212 net.cpp:478] scale4b_branch2a <- res4b_branch2a
I0809 14:29:57.256919 15212 net.cpp:420] scale4b_branch2a -> res4b_branch2a (in-place)
I0809 14:29:57.256942 15212 layer_factory.hpp:76] Creating layer scale4b_branch2a
I0809 14:29:57.256983 15212 net.cpp:156] Setting up scale4b_branch2a
I0809 14:29:57.256988 15212 net.cpp:164] Top shape: 1 256 25 25 (160000)
I0809 14:29:57.256992 15212 layer_factory.hpp:76] Creating layer res4b_branch2a_relu
I0809 14:29:57.256997 15212 net.cpp:111] Creating Layer res4b_branch2a_relu
I0809 14:29:57.256999 15212 net.cpp:478] res4b_branch2a_relu <- res4b_branch2a
I0809 14:29:57.257004 15212 net.cpp:420] res4b_branch2a_relu -> res4b_branch2a (in-place)
I0809 14:29:57.257009 15212 net.cpp:156] Setting up res4b_branch2a_relu
I0809 14:29:57.257011 15212 net.cpp:164] Top shape: 1 256 25 25 (160000)
I0809 14:29:57.257014 15212 layer_factory.hpp:76] Creating layer res4b_branch2b
I0809 14:29:57.257019 15212 net.cpp:111] Creating Layer res4b_branch2b
I0809 14:29:57.257021 15212 net.cpp:478] res4b_branch2b <- res4b_branch2a
I0809 14:29:57.257027 15212 net.cpp:434] res4b_branch2b -> res4b_branch2b
I0809 14:29:57.258654 15212 net.cpp:156] Setting up res4b_branch2b
I0809 14:29:57.258666 15212 net.cpp:164] Top shape: 1 256 25 25 (160000)
I0809 14:29:57.258671 15212 layer_factory.hpp:76] Creating layer bn4b_branch2b
I0809 14:29:57.258682 15212 net.cpp:111] Creating Layer bn4b_branch2b
I0809 14:29:57.258685 15212 net.cpp:478] bn4b_branch2b <- res4b_branch2b
I0809 14:29:57.258689 15212 net.cpp:420] bn4b_branch2b -> res4b_branch2b (in-place)
I0809 14:29:57.258755 15212 net.cpp:156] Setting up bn4b_branch2b
I0809 14:29:57.258761 15212 net.cpp:164] Top shape: 1 256 25 25 (160000)
I0809 14:29:57.258767 15212 layer_factory.hpp:76] Creating layer scale4b_branch2b
I0809 14:29:57.258772 15212 net.cpp:111] Creating Layer scale4b_branch2b
I0809 14:29:57.258775 15212 net.cpp:478] scale4b_branch2b <- res4b_branch2b
I0809 14:29:57.258780 15212 net.cpp:420] scale4b_branch2b -> res4b_branch2b (in-place)
I0809 14:29:57.258802 15212 layer_factory.hpp:76] Creating layer scale4b_branch2b
I0809 14:29:57.258850 15212 net.cpp:156] Setting up scale4b_branch2b
I0809 14:29:57.258855 15212 net.cpp:164] Top shape: 1 256 25 25 (160000)
I0809 14:29:57.258862 15212 layer_factory.hpp:76] Creating layer res4b_branch2b_relu
I0809 14:29:57.258867 15212 net.cpp:111] Creating Layer res4b_branch2b_relu
I0809 14:29:57.258870 15212 net.cpp:478] res4b_branch2b_relu <- res4b_branch2b
I0809 14:29:57.258874 15212 net.cpp:420] res4b_branch2b_relu -> res4b_branch2b (in-place)
I0809 14:29:57.258878 15212 net.cpp:156] Setting up res4b_branch2b_relu
I0809 14:29:57.258882 15212 net.cpp:164] Top shape: 1 256 25 25 (160000)
I0809 14:29:57.258884 15212 layer_factory.hpp:76] Creating layer res4b_branch2c
I0809 14:29:57.258889 15212 net.cpp:111] Creating Layer res4b_branch2c
I0809 14:29:57.258891 15212 net.cpp:478] res4b_branch2c <- res4b_branch2b
I0809 14:29:57.258895 15212 net.cpp:434] res4b_branch2c -> res4b_branch2c
I0809 14:29:57.259752 15212 net.cpp:156] Setting up res4b_branch2c
I0809 14:29:57.259766 15212 net.cpp:164] Top shape: 1 1024 25 25 (640000)
I0809 14:29:57.259771 15212 layer_factory.hpp:76] Creating layer bn4b_branch2c
I0809 14:29:57.259778 15212 net.cpp:111] Creating Layer bn4b_branch2c
I0809 14:29:57.259781 15212 net.cpp:478] bn4b_branch2c <- res4b_branch2c
I0809 14:29:57.259788 15212 net.cpp:420] bn4b_branch2c -> res4b_branch2c (in-place)
I0809 14:29:57.259852 15212 net.cpp:156] Setting up bn4b_branch2c
I0809 14:29:57.259858 15212 net.cpp:164] Top shape: 1 1024 25 25 (640000)
I0809 14:29:57.259866 15212 layer_factory.hpp:76] Creating layer scale4b_branch2c
I0809 14:29:57.259872 15212 net.cpp:111] Creating Layer scale4b_branch2c
I0809 14:29:57.259876 15212 net.cpp:478] scale4b_branch2c <- res4b_branch2c
I0809 14:29:57.259878 15212 net.cpp:420] scale4b_branch2c -> res4b_branch2c (in-place)
I0809 14:29:57.259902 15212 layer_factory.hpp:76] Creating layer scale4b_branch2c
I0809 14:29:57.259938 15212 net.cpp:156] Setting up scale4b_branch2c
I0809 14:29:57.259943 15212 net.cpp:164] Top shape: 1 1024 25 25 (640000)
I0809 14:29:57.259948 15212 layer_factory.hpp:76] Creating layer res4b
I0809 14:29:57.259953 15212 net.cpp:111] Creating Layer res4b
I0809 14:29:57.259956 15212 net.cpp:478] res4b <- res4a_res4a_relu_0_split_1
I0809 14:29:57.259959 15212 net.cpp:478] res4b <- res4b_branch2c
I0809 14:29:57.259963 15212 net.cpp:434] res4b -> res4b
I0809 14:29:57.259970 15212 net.cpp:156] Setting up res4b
I0809 14:29:57.259974 15212 net.cpp:164] Top shape: 1 1024 25 25 (640000)
I0809 14:29:57.259977 15212 layer_factory.hpp:76] Creating layer res4b_relu
I0809 14:29:57.259984 15212 net.cpp:111] Creating Layer res4b_relu
I0809 14:29:57.259986 15212 net.cpp:478] res4b_relu <- res4b
I0809 14:29:57.259989 15212 net.cpp:420] res4b_relu -> res4b (in-place)
I0809 14:29:57.259994 15212 net.cpp:156] Setting up res4b_relu
I0809 14:29:57.259997 15212 net.cpp:164] Top shape: 1 1024 25 25 (640000)
I0809 14:29:57.259999 15212 layer_factory.hpp:76] Creating layer res4b_res4b_relu_0_split
I0809 14:29:57.260004 15212 net.cpp:111] Creating Layer res4b_res4b_relu_0_split
I0809 14:29:57.260006 15212 net.cpp:478] res4b_res4b_relu_0_split <- res4b
I0809 14:29:57.260010 15212 net.cpp:434] res4b_res4b_relu_0_split -> res4b_res4b_relu_0_split_0
I0809 14:29:57.260015 15212 net.cpp:434] res4b_res4b_relu_0_split -> res4b_res4b_relu_0_split_1
I0809 14:29:57.260032 15212 net.cpp:156] Setting up res4b_res4b_relu_0_split
I0809 14:29:57.260036 15212 net.cpp:164] Top shape: 1 1024 25 25 (640000)
I0809 14:29:57.260040 15212 net.cpp:164] Top shape: 1 1024 25 25 (640000)
I0809 14:29:57.260042 15212 layer_factory.hpp:76] Creating layer res4c_branch2a
I0809 14:29:57.260047 15212 net.cpp:111] Creating Layer res4c_branch2a
I0809 14:29:57.260051 15212 net.cpp:478] res4c_branch2a <- res4b_res4b_relu_0_split_0
I0809 14:29:57.260054 15212 net.cpp:434] res4c_branch2a -> res4c_branch2a
I0809 14:29:57.260902 15212 net.cpp:156] Setting up res4c_branch2a
I0809 14:29:57.260912 15212 net.cpp:164] Top shape: 1 256 25 25 (160000)
I0809 14:29:57.260917 15212 layer_factory.hpp:76] Creating layer bn4c_branch2a
I0809 14:29:57.260923 15212 net.cpp:111] Creating Layer bn4c_branch2a
I0809 14:29:57.260926 15212 net.cpp:478] bn4c_branch2a <- res4c_branch2a
I0809 14:29:57.260931 15212 net.cpp:420] bn4c_branch2a -> res4c_branch2a (in-place)
I0809 14:29:57.260996 15212 net.cpp:156] Setting up bn4c_branch2a
I0809 14:29:57.261001 15212 net.cpp:164] Top shape: 1 256 25 25 (160000)
I0809 14:29:57.261011 15212 layer_factory.hpp:76] Creating layer scale4c_branch2a
I0809 14:29:57.261018 15212 net.cpp:111] Creating Layer scale4c_branch2a
I0809 14:29:57.261019 15212 net.cpp:478] scale4c_branch2a <- res4c_branch2a
I0809 14:29:57.261025 15212 net.cpp:420] scale4c_branch2a -> res4c_branch2a (in-place)
I0809 14:29:57.261047 15212 layer_factory.hpp:76] Creating layer scale4c_branch2a
I0809 14:29:57.261090 15212 net.cpp:156] Setting up scale4c_branch2a
I0809 14:29:57.261095 15212 net.cpp:164] Top shape: 1 256 25 25 (160000)
I0809 14:29:57.261101 15212 layer_factory.hpp:76] Creating layer res4c_branch2a_relu
I0809 14:29:57.261104 15212 net.cpp:111] Creating Layer res4c_branch2a_relu
I0809 14:29:57.261107 15212 net.cpp:478] res4c_branch2a_relu <- res4c_branch2a
I0809 14:29:57.261111 15212 net.cpp:420] res4c_branch2a_relu -> res4c_branch2a (in-place)
I0809 14:29:57.261116 15212 net.cpp:156] Setting up res4c_branch2a_relu
I0809 14:29:57.261119 15212 net.cpp:164] Top shape: 1 256 25 25 (160000)
I0809 14:29:57.261122 15212 layer_factory.hpp:76] Creating layer res4c_branch2b
I0809 14:29:57.261129 15212 net.cpp:111] Creating Layer res4c_branch2b
I0809 14:29:57.261132 15212 net.cpp:478] res4c_branch2b <- res4c_branch2a
I0809 14:29:57.261137 15212 net.cpp:434] res4c_branch2b -> res4c_branch2b
I0809 14:29:57.262773 15212 net.cpp:156] Setting up res4c_branch2b
I0809 14:29:57.262784 15212 net.cpp:164] Top shape: 1 256 25 25 (160000)
I0809 14:29:57.262789 15212 layer_factory.hpp:76] Creating layer bn4c_branch2b
I0809 14:29:57.262794 15212 net.cpp:111] Creating Layer bn4c_branch2b
I0809 14:29:57.262797 15212 net.cpp:478] bn4c_branch2b <- res4c_branch2b
I0809 14:29:57.262802 15212 net.cpp:420] bn4c_branch2b -> res4c_branch2b (in-place)
I0809 14:29:57.262869 15212 net.cpp:156] Setting up bn4c_branch2b
I0809 14:29:57.262876 15212 net.cpp:164] Top shape: 1 256 25 25 (160000)
I0809 14:29:57.262882 15212 layer_factory.hpp:76] Creating layer scale4c_branch2b
I0809 14:29:57.262887 15212 net.cpp:111] Creating Layer scale4c_branch2b
I0809 14:29:57.262890 15212 net.cpp:478] scale4c_branch2b <- res4c_branch2b
I0809 14:29:57.262895 15212 net.cpp:420] scale4c_branch2b -> res4c_branch2b (in-place)
I0809 14:29:57.262923 15212 layer_factory.hpp:76] Creating layer scale4c_branch2b
I0809 14:29:57.262969 15212 net.cpp:156] Setting up scale4c_branch2b
I0809 14:29:57.262979 15212 net.cpp:164] Top shape: 1 256 25 25 (160000)
I0809 14:29:57.262984 15212 layer_factory.hpp:76] Creating layer res4c_branch2b_relu
I0809 14:29:57.262989 15212 net.cpp:111] Creating Layer res4c_branch2b_relu
I0809 14:29:57.262990 15212 net.cpp:478] res4c_branch2b_relu <- res4c_branch2b
I0809 14:29:57.262995 15212 net.cpp:420] res4c_branch2b_relu -> res4c_branch2b (in-place)
I0809 14:29:57.263000 15212 net.cpp:156] Setting up res4c_branch2b_relu
I0809 14:29:57.263003 15212 net.cpp:164] Top shape: 1 256 25 25 (160000)
I0809 14:29:57.263005 15212 layer_factory.hpp:76] Creating layer res4c_branch2c
I0809 14:29:57.263010 15212 net.cpp:111] Creating Layer res4c_branch2c
I0809 14:29:57.263013 15212 net.cpp:478] res4c_branch2c <- res4c_branch2b
I0809 14:29:57.263018 15212 net.cpp:434] res4c_branch2c -> res4c_branch2c
I0809 14:29:57.263864 15212 net.cpp:156] Setting up res4c_branch2c
I0809 14:29:57.263878 15212 net.cpp:164] Top shape: 1 1024 25 25 (640000)
I0809 14:29:57.263887 15212 layer_factory.hpp:76] Creating layer bn4c_branch2c
I0809 14:29:57.263921 15212 net.cpp:111] Creating Layer bn4c_branch2c
I0809 14:29:57.263928 15212 net.cpp:478] bn4c_branch2c <- res4c_branch2c
I0809 14:29:57.263937 15212 net.cpp:420] bn4c_branch2c -> res4c_branch2c (in-place)
I0809 14:29:57.264029 15212 net.cpp:156] Setting up bn4c_branch2c
I0809 14:29:57.264039 15212 net.cpp:164] Top shape: 1 1024 25 25 (640000)
I0809 14:29:57.264051 15212 layer_factory.hpp:76] Creating layer scale4c_branch2c
I0809 14:29:57.264070 15212 net.cpp:111] Creating Layer scale4c_branch2c
I0809 14:29:57.264077 15212 net.cpp:478] scale4c_branch2c <- res4c_branch2c
I0809 14:29:57.264086 15212 net.cpp:420] scale4c_branch2c -> res4c_branch2c (in-place)
I0809 14:29:57.264123 15212 layer_factory.hpp:76] Creating layer scale4c_branch2c
I0809 14:29:57.264174 15212 net.cpp:156] Setting up scale4c_branch2c
I0809 14:29:57.264183 15212 net.cpp:164] Top shape: 1 1024 25 25 (640000)
I0809 14:29:57.264196 15212 layer_factory.hpp:76] Creating layer res4c
I0809 14:29:57.264205 15212 net.cpp:111] Creating Layer res4c
I0809 14:29:57.264212 15212 net.cpp:478] res4c <- res4b_res4b_relu_0_split_1
I0809 14:29:57.264220 15212 net.cpp:478] res4c <- res4c_branch2c
I0809 14:29:57.264232 15212 net.cpp:434] res4c -> res4c
I0809 14:29:57.264245 15212 net.cpp:156] Setting up res4c
I0809 14:29:57.264252 15212 net.cpp:164] Top shape: 1 1024 25 25 (640000)
I0809 14:29:57.264259 15212 layer_factory.hpp:76] Creating layer res4c_relu
I0809 14:29:57.264268 15212 net.cpp:111] Creating Layer res4c_relu
I0809 14:29:57.264274 15212 net.cpp:478] res4c_relu <- res4c
I0809 14:29:57.264284 15212 net.cpp:420] res4c_relu -> res4c (in-place)
I0809 14:29:57.264304 15212 net.cpp:156] Setting up res4c_relu
I0809 14:29:57.264313 15212 net.cpp:164] Top shape: 1 1024 25 25 (640000)
I0809 14:29:57.264320 15212 layer_factory.hpp:76] Creating layer res4c_res4c_relu_0_split
I0809 14:29:57.264331 15212 net.cpp:111] Creating Layer res4c_res4c_relu_0_split
I0809 14:29:57.264338 15212 net.cpp:478] res4c_res4c_relu_0_split <- res4c
I0809 14:29:57.264348 15212 net.cpp:434] res4c_res4c_relu_0_split -> res4c_res4c_relu_0_split_0
I0809 14:29:57.264358 15212 net.cpp:434] res4c_res4c_relu_0_split -> res4c_res4c_relu_0_split_1
I0809 14:29:57.264369 15212 net.cpp:156] Setting up res4c_res4c_relu_0_split
I0809 14:29:57.264376 15212 net.cpp:164] Top shape: 1 1024 25 25 (640000)
I0809 14:29:57.264385 15212 net.cpp:164] Top shape: 1 1024 25 25 (640000)
I0809 14:29:57.264392 15212 layer_factory.hpp:76] Creating layer res4d_branch2a
I0809 14:29:57.264405 15212 net.cpp:111] Creating Layer res4d_branch2a
I0809 14:29:57.264411 15212 net.cpp:478] res4d_branch2a <- res4c_res4c_relu_0_split_0
I0809 14:29:57.264420 15212 net.cpp:434] res4d_branch2a -> res4d_branch2a
I0809 14:29:57.265265 15212 net.cpp:156] Setting up res4d_branch2a
I0809 14:29:57.265280 15212 net.cpp:164] Top shape: 1 256 25 25 (160000)
I0809 14:29:57.265290 15212 layer_factory.hpp:76] Creating layer bn4d_branch2a
I0809 14:29:57.265300 15212 net.cpp:111] Creating Layer bn4d_branch2a
I0809 14:29:57.265305 15212 net.cpp:478] bn4d_branch2a <- res4d_branch2a
I0809 14:29:57.265313 15212 net.cpp:420] bn4d_branch2a -> res4d_branch2a (in-place)
I0809 14:29:57.265401 15212 net.cpp:156] Setting up bn4d_branch2a
I0809 14:29:57.265411 15212 net.cpp:164] Top shape: 1 256 25 25 (160000)
I0809 14:29:57.265424 15212 layer_factory.hpp:76] Creating layer scale4d_branch2a
I0809 14:29:57.265435 15212 net.cpp:111] Creating Layer scale4d_branch2a
I0809 14:29:57.265445 15212 net.cpp:478] scale4d_branch2a <- res4d_branch2a
I0809 14:29:57.265451 15212 net.cpp:420] scale4d_branch2a -> res4d_branch2a (in-place)
I0809 14:29:57.265477 15212 layer_factory.hpp:76] Creating layer scale4d_branch2a
I0809 14:29:57.265525 15212 net.cpp:156] Setting up scale4d_branch2a
I0809 14:29:57.265532 15212 net.cpp:164] Top shape: 1 256 25 25 (160000)
I0809 14:29:57.265537 15212 layer_factory.hpp:76] Creating layer res4d_branch2a_relu
I0809 14:29:57.265543 15212 net.cpp:111] Creating Layer res4d_branch2a_relu
I0809 14:29:57.265547 15212 net.cpp:478] res4d_branch2a_relu <- res4d_branch2a
I0809 14:29:57.265550 15212 net.cpp:420] res4d_branch2a_relu -> res4d_branch2a (in-place)
I0809 14:29:57.265555 15212 net.cpp:156] Setting up res4d_branch2a_relu
I0809 14:29:57.265564 15212 net.cpp:164] Top shape: 1 256 25 25 (160000)
I0809 14:29:57.265570 15212 layer_factory.hpp:76] Creating layer res4d_branch2b
I0809 14:29:57.265583 15212 net.cpp:111] Creating Layer res4d_branch2b
I0809 14:29:57.265588 15212 net.cpp:478] res4d_branch2b <- res4d_branch2a
I0809 14:29:57.265596 15212 net.cpp:434] res4d_branch2b -> res4d_branch2b
I0809 14:29:57.267227 15212 net.cpp:156] Setting up res4d_branch2b
I0809 14:29:57.267241 15212 net.cpp:164] Top shape: 1 256 25 25 (160000)
I0809 14:29:57.267251 15212 layer_factory.hpp:76] Creating layer bn4d_branch2b
I0809 14:29:57.267266 15212 net.cpp:111] Creating Layer bn4d_branch2b
I0809 14:29:57.267272 15212 net.cpp:478] bn4d_branch2b <- res4d_branch2b
I0809 14:29:57.267284 15212 net.cpp:420] bn4d_branch2b -> res4d_branch2b (in-place)
I0809 14:29:57.267360 15212 net.cpp:156] Setting up bn4d_branch2b
I0809 14:29:57.267369 15212 net.cpp:164] Top shape: 1 256 25 25 (160000)
I0809 14:29:57.267376 15212 layer_factory.hpp:76] Creating layer scale4d_branch2b
I0809 14:29:57.267383 15212 net.cpp:111] Creating Layer scale4d_branch2b
I0809 14:29:57.267387 15212 net.cpp:478] scale4d_branch2b <- res4d_branch2b
I0809 14:29:57.267391 15212 net.cpp:420] scale4d_branch2b -> res4d_branch2b (in-place)
I0809 14:29:57.267418 15212 layer_factory.hpp:76] Creating layer scale4d_branch2b
I0809 14:29:57.267465 15212 net.cpp:156] Setting up scale4d_branch2b
I0809 14:29:57.267472 15212 net.cpp:164] Top shape: 1 256 25 25 (160000)
I0809 14:29:57.267477 15212 layer_factory.hpp:76] Creating layer res4d_branch2b_relu
I0809 14:29:57.267485 15212 net.cpp:111] Creating Layer res4d_branch2b_relu
I0809 14:29:57.267488 15212 net.cpp:478] res4d_branch2b_relu <- res4d_branch2b
I0809 14:29:57.267493 15212 net.cpp:420] res4d_branch2b_relu -> res4d_branch2b (in-place)
I0809 14:29:57.267498 15212 net.cpp:156] Setting up res4d_branch2b_relu
I0809 14:29:57.267501 15212 net.cpp:164] Top shape: 1 256 25 25 (160000)
I0809 14:29:57.267504 15212 layer_factory.hpp:76] Creating layer res4d_branch2c
I0809 14:29:57.267509 15212 net.cpp:111] Creating Layer res4d_branch2c
I0809 14:29:57.267513 15212 net.cpp:478] res4d_branch2c <- res4d_branch2b
I0809 14:29:57.267516 15212 net.cpp:434] res4d_branch2c -> res4d_branch2c
I0809 14:29:57.268345 15212 net.cpp:156] Setting up res4d_branch2c
I0809 14:29:57.268357 15212 net.cpp:164] Top shape: 1 1024 25 25 (640000)
I0809 14:29:57.268362 15212 layer_factory.hpp:76] Creating layer bn4d_branch2c
I0809 14:29:57.268369 15212 net.cpp:111] Creating Layer bn4d_branch2c
I0809 14:29:57.268373 15212 net.cpp:478] bn4d_branch2c <- res4d_branch2c
I0809 14:29:57.268379 15212 net.cpp:420] bn4d_branch2c -> res4d_branch2c (in-place)
I0809 14:29:57.268448 15212 net.cpp:156] Setting up bn4d_branch2c
I0809 14:29:57.268455 15212 net.cpp:164] Top shape: 1 1024 25 25 (640000)
I0809 14:29:57.268461 15212 layer_factory.hpp:76] Creating layer scale4d_branch2c
I0809 14:29:57.268468 15212 net.cpp:111] Creating Layer scale4d_branch2c
I0809 14:29:57.268472 15212 net.cpp:478] scale4d_branch2c <- res4d_branch2c
I0809 14:29:57.268476 15212 net.cpp:420] scale4d_branch2c -> res4d_branch2c (in-place)
I0809 14:29:57.268501 15212 layer_factory.hpp:76] Creating layer scale4d_branch2c
I0809 14:29:57.268543 15212 net.cpp:156] Setting up scale4d_branch2c
I0809 14:29:57.268549 15212 net.cpp:164] Top shape: 1 1024 25 25 (640000)
I0809 14:29:57.268554 15212 layer_factory.hpp:76] Creating layer res4d
I0809 14:29:57.268560 15212 net.cpp:111] Creating Layer res4d
I0809 14:29:57.268565 15212 net.cpp:478] res4d <- res4c_res4c_relu_0_split_1
I0809 14:29:57.268569 15212 net.cpp:478] res4d <- res4d_branch2c
I0809 14:29:57.268573 15212 net.cpp:434] res4d -> res4d
I0809 14:29:57.268581 15212 net.cpp:156] Setting up res4d
I0809 14:29:57.268586 15212 net.cpp:164] Top shape: 1 1024 25 25 (640000)
I0809 14:29:57.268589 15212 layer_factory.hpp:76] Creating layer res4d_relu
I0809 14:29:57.268596 15212 net.cpp:111] Creating Layer res4d_relu
I0809 14:29:57.268600 15212 net.cpp:478] res4d_relu <- res4d
I0809 14:29:57.268604 15212 net.cpp:420] res4d_relu -> res4d (in-place)
I0809 14:29:57.268609 15212 net.cpp:156] Setting up res4d_relu
I0809 14:29:57.268612 15212 net.cpp:164] Top shape: 1 1024 25 25 (640000)
I0809 14:29:57.268615 15212 layer_factory.hpp:76] Creating layer res4d_res4d_relu_0_split
I0809 14:29:57.268620 15212 net.cpp:111] Creating Layer res4d_res4d_relu_0_split
I0809 14:29:57.268625 15212 net.cpp:478] res4d_res4d_relu_0_split <- res4d
I0809 14:29:57.268628 15212 net.cpp:434] res4d_res4d_relu_0_split -> res4d_res4d_relu_0_split_0
I0809 14:29:57.268633 15212 net.cpp:434] res4d_res4d_relu_0_split -> res4d_res4d_relu_0_split_1
I0809 14:29:57.268638 15212 net.cpp:156] Setting up res4d_res4d_relu_0_split
I0809 14:29:57.268646 15212 net.cpp:164] Top shape: 1 1024 25 25 (640000)
I0809 14:29:57.268652 15212 net.cpp:164] Top shape: 1 1024 25 25 (640000)
I0809 14:29:57.268657 15212 layer_factory.hpp:76] Creating layer res4e_branch2a
I0809 14:29:57.268668 15212 net.cpp:111] Creating Layer res4e_branch2a
I0809 14:29:57.268676 15212 net.cpp:478] res4e_branch2a <- res4d_res4d_relu_0_split_0
I0809 14:29:57.268684 15212 net.cpp:434] res4e_branch2a -> res4e_branch2a
I0809 14:29:57.269512 15212 net.cpp:156] Setting up res4e_branch2a
I0809 14:29:57.269526 15212 net.cpp:164] Top shape: 1 256 25 25 (160000)
I0809 14:29:57.269536 15212 layer_factory.hpp:76] Creating layer bn4e_branch2a
I0809 14:29:57.269552 15212 net.cpp:111] Creating Layer bn4e_branch2a
I0809 14:29:57.269557 15212 net.cpp:478] bn4e_branch2a <- res4e_branch2a
I0809 14:29:57.269562 15212 net.cpp:420] bn4e_branch2a -> res4e_branch2a (in-place)
I0809 14:29:57.269630 15212 net.cpp:156] Setting up bn4e_branch2a
I0809 14:29:57.269637 15212 net.cpp:164] Top shape: 1 256 25 25 (160000)
I0809 14:29:57.269644 15212 layer_factory.hpp:76] Creating layer scale4e_branch2a
I0809 14:29:57.269651 15212 net.cpp:111] Creating Layer scale4e_branch2a
I0809 14:29:57.269656 15212 net.cpp:478] scale4e_branch2a <- res4e_branch2a
I0809 14:29:57.269661 15212 net.cpp:420] scale4e_branch2a -> res4e_branch2a (in-place)
I0809 14:29:57.269685 15212 layer_factory.hpp:76] Creating layer scale4e_branch2a
I0809 14:29:57.269731 15212 net.cpp:156] Setting up scale4e_branch2a
I0809 14:29:57.269737 15212 net.cpp:164] Top shape: 1 256 25 25 (160000)
I0809 14:29:57.269742 15212 layer_factory.hpp:76] Creating layer res4e_branch2a_relu
I0809 14:29:57.269748 15212 net.cpp:111] Creating Layer res4e_branch2a_relu
I0809 14:29:57.269750 15212 net.cpp:478] res4e_branch2a_relu <- res4e_branch2a
I0809 14:29:57.269754 15212 net.cpp:420] res4e_branch2a_relu -> res4e_branch2a (in-place)
I0809 14:29:57.269760 15212 net.cpp:156] Setting up res4e_branch2a_relu
I0809 14:29:57.269765 15212 net.cpp:164] Top shape: 1 256 25 25 (160000)
I0809 14:29:57.269768 15212 layer_factory.hpp:76] Creating layer res4e_branch2b
I0809 14:29:57.269773 15212 net.cpp:111] Creating Layer res4e_branch2b
I0809 14:29:57.269775 15212 net.cpp:478] res4e_branch2b <- res4e_branch2a
I0809 14:29:57.269781 15212 net.cpp:434] res4e_branch2b -> res4e_branch2b
I0809 14:29:57.271304 15212 net.cpp:156] Setting up res4e_branch2b
I0809 14:29:57.271317 15212 net.cpp:164] Top shape: 1 256 25 25 (160000)
I0809 14:29:57.271322 15212 layer_factory.hpp:76] Creating layer bn4e_branch2b
I0809 14:29:57.271330 15212 net.cpp:111] Creating Layer bn4e_branch2b
I0809 14:29:57.271334 15212 net.cpp:478] bn4e_branch2b <- res4e_branch2b
I0809 14:29:57.271338 15212 net.cpp:420] bn4e_branch2b -> res4e_branch2b (in-place)
I0809 14:29:57.271402 15212 net.cpp:156] Setting up bn4e_branch2b
I0809 14:29:57.271410 15212 net.cpp:164] Top shape: 1 256 25 25 (160000)
I0809 14:29:57.271416 15212 layer_factory.hpp:76] Creating layer scale4e_branch2b
I0809 14:29:57.271423 15212 net.cpp:111] Creating Layer scale4e_branch2b
I0809 14:29:57.271427 15212 net.cpp:478] scale4e_branch2b <- res4e_branch2b
I0809 14:29:57.271431 15212 net.cpp:420] scale4e_branch2b -> res4e_branch2b (in-place)
I0809 14:29:57.271456 15212 layer_factory.hpp:76] Creating layer scale4e_branch2b
I0809 14:29:57.271502 15212 net.cpp:156] Setting up scale4e_branch2b
I0809 14:29:57.271508 15212 net.cpp:164] Top shape: 1 256 25 25 (160000)
I0809 14:29:57.271513 15212 layer_factory.hpp:76] Creating layer res4e_branch2b_relu
I0809 14:29:57.271520 15212 net.cpp:111] Creating Layer res4e_branch2b_relu
I0809 14:29:57.271524 15212 net.cpp:478] res4e_branch2b_relu <- res4e_branch2b
I0809 14:29:57.271528 15212 net.cpp:420] res4e_branch2b_relu -> res4e_branch2b (in-place)
I0809 14:29:57.271533 15212 net.cpp:156] Setting up res4e_branch2b_relu
I0809 14:29:57.271538 15212 net.cpp:164] Top shape: 1 256 25 25 (160000)
I0809 14:29:57.271539 15212 layer_factory.hpp:76] Creating layer res4e_branch2c
I0809 14:29:57.271544 15212 net.cpp:111] Creating Layer res4e_branch2c
I0809 14:29:57.271548 15212 net.cpp:478] res4e_branch2c <- res4e_branch2b
I0809 14:29:57.271553 15212 net.cpp:434] res4e_branch2c -> res4e_branch2c
I0809 14:29:57.272382 15212 net.cpp:156] Setting up res4e_branch2c
I0809 14:29:57.272393 15212 net.cpp:164] Top shape: 1 1024 25 25 (640000)
I0809 14:29:57.272397 15212 layer_factory.hpp:76] Creating layer bn4e_branch2c
I0809 14:29:57.272404 15212 net.cpp:111] Creating Layer bn4e_branch2c
I0809 14:29:57.272409 15212 net.cpp:478] bn4e_branch2c <- res4e_branch2c
I0809 14:29:57.272413 15212 net.cpp:420] bn4e_branch2c -> res4e_branch2c (in-place)
I0809 14:29:57.272485 15212 net.cpp:156] Setting up bn4e_branch2c
I0809 14:29:57.272492 15212 net.cpp:164] Top shape: 1 1024 25 25 (640000)
I0809 14:29:57.272500 15212 layer_factory.hpp:76] Creating layer scale4e_branch2c
I0809 14:29:57.272508 15212 net.cpp:111] Creating Layer scale4e_branch2c
I0809 14:29:57.272512 15212 net.cpp:478] scale4e_branch2c <- res4e_branch2c
I0809 14:29:57.272516 15212 net.cpp:420] scale4e_branch2c -> res4e_branch2c (in-place)
I0809 14:29:57.272541 15212 layer_factory.hpp:76] Creating layer scale4e_branch2c
I0809 14:29:57.272580 15212 net.cpp:156] Setting up scale4e_branch2c
I0809 14:29:57.272586 15212 net.cpp:164] Top shape: 1 1024 25 25 (640000)
I0809 14:29:57.272591 15212 layer_factory.hpp:76] Creating layer res4e
I0809 14:29:57.272598 15212 net.cpp:111] Creating Layer res4e
I0809 14:29:57.272603 15212 net.cpp:478] res4e <- res4d_res4d_relu_0_split_1
I0809 14:29:57.272606 15212 net.cpp:478] res4e <- res4e_branch2c
I0809 14:29:57.272610 15212 net.cpp:434] res4e -> res4e
I0809 14:29:57.272617 15212 net.cpp:156] Setting up res4e
I0809 14:29:57.272622 15212 net.cpp:164] Top shape: 1 1024 25 25 (640000)
I0809 14:29:57.272625 15212 layer_factory.hpp:76] Creating layer res4e_relu
I0809 14:29:57.272629 15212 net.cpp:111] Creating Layer res4e_relu
I0809 14:29:57.272634 15212 net.cpp:478] res4e_relu <- res4e
I0809 14:29:57.272639 15212 net.cpp:420] res4e_relu -> res4e (in-place)
I0809 14:29:57.272644 15212 net.cpp:156] Setting up res4e_relu
I0809 14:29:57.272647 15212 net.cpp:164] Top shape: 1 1024 25 25 (640000)
I0809 14:29:57.272650 15212 layer_factory.hpp:76] Creating layer res4e_res4e_relu_0_split
I0809 14:29:57.272655 15212 net.cpp:111] Creating Layer res4e_res4e_relu_0_split
I0809 14:29:57.272657 15212 net.cpp:478] res4e_res4e_relu_0_split <- res4e
I0809 14:29:57.272660 15212 net.cpp:434] res4e_res4e_relu_0_split -> res4e_res4e_relu_0_split_0
I0809 14:29:57.272665 15212 net.cpp:434] res4e_res4e_relu_0_split -> res4e_res4e_relu_0_split_1
I0809 14:29:57.272672 15212 net.cpp:156] Setting up res4e_res4e_relu_0_split
I0809 14:29:57.272677 15212 net.cpp:164] Top shape: 1 1024 25 25 (640000)
I0809 14:29:57.272680 15212 net.cpp:164] Top shape: 1 1024 25 25 (640000)
I0809 14:29:57.272683 15212 layer_factory.hpp:76] Creating layer res4f_branch2a
I0809 14:29:57.272688 15212 net.cpp:111] Creating Layer res4f_branch2a
I0809 14:29:57.272691 15212 net.cpp:478] res4f_branch2a <- res4e_res4e_relu_0_split_0
I0809 14:29:57.272697 15212 net.cpp:434] res4f_branch2a -> res4f_branch2a
I0809 14:29:57.273522 15212 net.cpp:156] Setting up res4f_branch2a
I0809 14:29:57.273535 15212 net.cpp:164] Top shape: 1 256 25 25 (160000)
I0809 14:29:57.273540 15212 layer_factory.hpp:76] Creating layer bn4f_branch2a
I0809 14:29:57.273550 15212 net.cpp:111] Creating Layer bn4f_branch2a
I0809 14:29:57.273555 15212 net.cpp:478] bn4f_branch2a <- res4f_branch2a
I0809 14:29:57.273560 15212 net.cpp:420] bn4f_branch2a -> res4f_branch2a (in-place)
I0809 14:29:57.273632 15212 net.cpp:156] Setting up bn4f_branch2a
I0809 14:29:57.273638 15212 net.cpp:164] Top shape: 1 256 25 25 (160000)
I0809 14:29:57.273645 15212 layer_factory.hpp:76] Creating layer scale4f_branch2a
I0809 14:29:57.273653 15212 net.cpp:111] Creating Layer scale4f_branch2a
I0809 14:29:57.273656 15212 net.cpp:478] scale4f_branch2a <- res4f_branch2a
I0809 14:29:57.273661 15212 net.cpp:420] scale4f_branch2a -> res4f_branch2a (in-place)
I0809 14:29:57.273685 15212 layer_factory.hpp:76] Creating layer scale4f_branch2a
I0809 14:29:57.273736 15212 net.cpp:156] Setting up scale4f_branch2a
I0809 14:29:57.273741 15212 net.cpp:164] Top shape: 1 256 25 25 (160000)
I0809 14:29:57.273746 15212 layer_factory.hpp:76] Creating layer res4f_branch2a_relu
I0809 14:29:57.273752 15212 net.cpp:111] Creating Layer res4f_branch2a_relu
I0809 14:29:57.273756 15212 net.cpp:478] res4f_branch2a_relu <- res4f_branch2a
I0809 14:29:57.273759 15212 net.cpp:420] res4f_branch2a_relu -> res4f_branch2a (in-place)
I0809 14:29:57.273766 15212 net.cpp:156] Setting up res4f_branch2a_relu
I0809 14:29:57.273771 15212 net.cpp:164] Top shape: 1 256 25 25 (160000)
I0809 14:29:57.273773 15212 layer_factory.hpp:76] Creating layer res4f_branch2b
I0809 14:29:57.273777 15212 net.cpp:111] Creating Layer res4f_branch2b
I0809 14:29:57.273782 15212 net.cpp:478] res4f_branch2b <- res4f_branch2a
I0809 14:29:57.273787 15212 net.cpp:434] res4f_branch2b -> res4f_branch2b
I0809 14:29:57.275355 15212 net.cpp:156] Setting up res4f_branch2b
I0809 14:29:57.275368 15212 net.cpp:164] Top shape: 1 256 25 25 (160000)
I0809 14:29:57.275373 15212 layer_factory.hpp:76] Creating layer bn4f_branch2b
I0809 14:29:57.275382 15212 net.cpp:111] Creating Layer bn4f_branch2b
I0809 14:29:57.275385 15212 net.cpp:478] bn4f_branch2b <- res4f_branch2b
I0809 14:29:57.275391 15212 net.cpp:420] bn4f_branch2b -> res4f_branch2b (in-place)
I0809 14:29:57.275460 15212 net.cpp:156] Setting up bn4f_branch2b
I0809 14:29:57.275468 15212 net.cpp:164] Top shape: 1 256 25 25 (160000)
I0809 14:29:57.275475 15212 layer_factory.hpp:76] Creating layer scale4f_branch2b
I0809 14:29:57.275481 15212 net.cpp:111] Creating Layer scale4f_branch2b
I0809 14:29:57.275485 15212 net.cpp:478] scale4f_branch2b <- res4f_branch2b
I0809 14:29:57.275490 15212 net.cpp:420] scale4f_branch2b -> res4f_branch2b (in-place)
I0809 14:29:57.275513 15212 layer_factory.hpp:76] Creating layer scale4f_branch2b
I0809 14:29:57.275559 15212 net.cpp:156] Setting up scale4f_branch2b
I0809 14:29:57.275566 15212 net.cpp:164] Top shape: 1 256 25 25 (160000)
I0809 14:29:57.275571 15212 layer_factory.hpp:76] Creating layer res4f_branch2b_relu
I0809 14:29:57.275576 15212 net.cpp:111] Creating Layer res4f_branch2b_relu
I0809 14:29:57.275579 15212 net.cpp:478] res4f_branch2b_relu <- res4f_branch2b
I0809 14:29:57.275584 15212 net.cpp:420] res4f_branch2b_relu -> res4f_branch2b (in-place)
I0809 14:29:57.275591 15212 net.cpp:156] Setting up res4f_branch2b_relu
I0809 14:29:57.275595 15212 net.cpp:164] Top shape: 1 256 25 25 (160000)
I0809 14:29:57.275599 15212 layer_factory.hpp:76] Creating layer res4f_branch2c
I0809 14:29:57.275604 15212 net.cpp:111] Creating Layer res4f_branch2c
I0809 14:29:57.275607 15212 net.cpp:478] res4f_branch2c <- res4f_branch2b
I0809 14:29:57.275611 15212 net.cpp:434] res4f_branch2c -> res4f_branch2c
I0809 14:29:57.276471 15212 net.cpp:156] Setting up res4f_branch2c
I0809 14:29:57.276484 15212 net.cpp:164] Top shape: 1 1024 25 25 (640000)
I0809 14:29:57.276489 15212 layer_factory.hpp:76] Creating layer bn4f_branch2c
I0809 14:29:57.276495 15212 net.cpp:111] Creating Layer bn4f_branch2c
I0809 14:29:57.276500 15212 net.cpp:478] bn4f_branch2c <- res4f_branch2c
I0809 14:29:57.276504 15212 net.cpp:420] bn4f_branch2c -> res4f_branch2c (in-place)
I0809 14:29:57.276571 15212 net.cpp:156] Setting up bn4f_branch2c
I0809 14:29:57.276578 15212 net.cpp:164] Top shape: 1 1024 25 25 (640000)
I0809 14:29:57.276628 15212 layer_factory.hpp:76] Creating layer scale4f_branch2c
I0809 14:29:57.276638 15212 net.cpp:111] Creating Layer scale4f_branch2c
I0809 14:29:57.276641 15212 net.cpp:478] scale4f_branch2c <- res4f_branch2c
I0809 14:29:57.276645 15212 net.cpp:420] scale4f_branch2c -> res4f_branch2c (in-place)
I0809 14:29:57.276671 15212 layer_factory.hpp:76] Creating layer scale4f_branch2c
I0809 14:29:57.276716 15212 net.cpp:156] Setting up scale4f_branch2c
I0809 14:29:57.276723 15212 net.cpp:164] Top shape: 1 1024 25 25 (640000)
I0809 14:29:57.276728 15212 layer_factory.hpp:76] Creating layer res4f
I0809 14:29:57.276736 15212 net.cpp:111] Creating Layer res4f
I0809 14:29:57.276741 15212 net.cpp:478] res4f <- res4e_res4e_relu_0_split_1
I0809 14:29:57.276743 15212 net.cpp:478] res4f <- res4f_branch2c
I0809 14:29:57.276749 15212 net.cpp:434] res4f -> res4f
I0809 14:29:57.276757 15212 net.cpp:156] Setting up res4f
I0809 14:29:57.276762 15212 net.cpp:164] Top shape: 1 1024 25 25 (640000)
I0809 14:29:57.276764 15212 layer_factory.hpp:76] Creating layer res4f_relu
I0809 14:29:57.276768 15212 net.cpp:111] Creating Layer res4f_relu
I0809 14:29:57.276772 15212 net.cpp:478] res4f_relu <- res4f
I0809 14:29:57.276775 15212 net.cpp:420] res4f_relu -> res4f (in-place)
I0809 14:29:57.276780 15212 net.cpp:156] Setting up res4f_relu
I0809 14:29:57.276784 15212 net.cpp:164] Top shape: 1 1024 25 25 (640000)
I0809 14:29:57.276787 15212 layer_factory.hpp:76] Creating layer im2col
I0809 14:29:57.276798 15212 net.cpp:111] Creating Layer im2col
I0809 14:29:57.276801 15212 net.cpp:478] im2col <- res4f
I0809 14:29:57.276805 15212 net.cpp:434] im2col -> im2col
I0809 14:29:57.276814 15212 net.cpp:156] Setting up im2col
I0809 14:29:57.276819 15212 net.cpp:164] Top shape: 1 9216 25 25 (5760000)
I0809 14:29:57.276823 15212 layer_factory.hpp:76] Creating layer im2col_transpose
I0809 14:29:57.277251 15212 net.cpp:111] Creating Layer im2col_transpose
I0809 14:29:57.277261 15212 net.cpp:478] im2col_transpose <- im2col
I0809 14:29:57.277266 15212 net.cpp:434] im2col_transpose -> im2col_transpose
I0809 14:29:57.277339 15212 net.cpp:156] Setting up im2col_transpose
I0809 14:29:57.277348 15212 net.cpp:164] Top shape: 25 25 1 9216 (5760000)
I0809 14:29:57.277350 15212 layer_factory.hpp:76] Creating layer lstm_input
I0809 14:29:57.277362 15212 net.cpp:111] Creating Layer lstm_input
I0809 14:29:57.277370 15212 net.cpp:478] lstm_input <- im2col_transpose
I0809 14:29:57.277382 15212 net.cpp:434] lstm_input -> lstm_input
I0809 14:29:57.277396 15212 net.cpp:156] Setting up lstm_input
I0809 14:29:57.277401 15212 net.cpp:164] Top shape: 25 25 9216 (5760000)
I0809 14:29:57.277405 15212 layer_factory.hpp:76] Creating layer lstm_input_lstm_input_0_split
I0809 14:29:57.277410 15212 net.cpp:111] Creating Layer lstm_input_lstm_input_0_split
I0809 14:29:57.277412 15212 net.cpp:478] lstm_input_lstm_input_0_split <- lstm_input
I0809 14:29:57.277415 15212 net.cpp:434] lstm_input_lstm_input_0_split -> lstm_input_lstm_input_0_split_0
I0809 14:29:57.277423 15212 net.cpp:434] lstm_input_lstm_input_0_split -> lstm_input_lstm_input_0_split_1
I0809 14:29:57.277431 15212 net.cpp:156] Setting up lstm_input_lstm_input_0_split
I0809 14:29:57.277434 15212 net.cpp:164] Top shape: 25 25 9216 (5760000)
I0809 14:29:57.277437 15212 net.cpp:164] Top shape: 25 25 9216 (5760000)
I0809 14:29:57.277441 15212 layer_factory.hpp:76] Creating layer lstm
I0809 14:29:57.277451 15212 net.cpp:111] Creating Layer lstm
I0809 14:29:57.277452 15212 net.cpp:478] lstm <- lstm_input_lstm_input_0_split_0
I0809 14:29:57.277457 15212 net.cpp:434] lstm -> lstm
I0809 14:29:57.343035 15212 net.cpp:156] Setting up lstm
I0809 14:29:57.343067 15212 net.cpp:164] Top shape: 25 25 128 (80000)
I0809 14:29:57.343080 15212 layer_factory.hpp:76] Creating layer lstm-reverse1
I0809 14:29:57.343092 15212 net.cpp:111] Creating Layer lstm-reverse1
I0809 14:29:57.343101 15212 net.cpp:478] lstm-reverse1 <- lstm_input_lstm_input_0_split_1
I0809 14:29:57.343117 15212 net.cpp:434] lstm-reverse1 -> rlstm_input
I0809 14:29:57.343178 15212 net.cpp:156] Setting up lstm-reverse1
I0809 14:29:57.343188 15212 net.cpp:164] Top shape: 25 25 9216 (5760000)
I0809 14:29:57.343194 15212 layer_factory.hpp:76] Creating layer rlstm
I0809 14:29:57.343207 15212 net.cpp:111] Creating Layer rlstm
I0809 14:29:57.343216 15212 net.cpp:478] rlstm <- rlstm_input
I0809 14:29:57.343225 15212 net.cpp:434] rlstm -> rlstm-output
I0809 14:29:57.411032 15212 net.cpp:156] Setting up rlstm
I0809 14:29:57.411072 15212 net.cpp:164] Top shape: 25 25 128 (80000)
I0809 14:29:57.411087 15212 layer_factory.hpp:76] Creating layer lstm-reverse2
I0809 14:29:57.411101 15212 net.cpp:111] Creating Layer lstm-reverse2
I0809 14:29:57.411109 15212 net.cpp:478] lstm-reverse2 <- rlstm-output
I0809 14:29:57.411149 15212 net.cpp:434] lstm-reverse2 -> rlstm
I0809 14:29:57.411227 15212 net.cpp:156] Setting up lstm-reverse2
I0809 14:29:57.411239 15212 net.cpp:164] Top shape: 25 25 128 (80000)
I0809 14:29:57.411245 15212 layer_factory.hpp:76] Creating layer merge_lstm_rlstm
I0809 14:29:57.411274 15212 net.cpp:111] Creating Layer merge_lstm_rlstm
I0809 14:29:57.411283 15212 net.cpp:478] merge_lstm_rlstm <- lstm
I0809 14:29:57.411290 15212 net.cpp:478] merge_lstm_rlstm <- rlstm
I0809 14:29:57.411304 15212 net.cpp:434] merge_lstm_rlstm -> merge_lstm_rlstm
I0809 14:29:57.411377 15212 net.cpp:156] Setting up merge_lstm_rlstm
I0809 14:29:57.411388 15212 net.cpp:164] Top shape: 25 25 256 (160000)
I0809 14:29:57.411396 15212 layer_factory.hpp:76] Creating layer lstm_output_reshape
I0809 14:29:57.411432 15212 net.cpp:111] Creating Layer lstm_output_reshape
I0809 14:29:57.411439 15212 net.cpp:478] lstm_output_reshape <- merge_lstm_rlstm
I0809 14:29:57.411451 15212 net.cpp:434] lstm_output_reshape -> lstm_output_reshape
I0809 14:29:57.411473 15212 net.cpp:156] Setting up lstm_output_reshape
I0809 14:29:57.411489 15212 net.cpp:164] Top shape: 25 25 1 256 (160000)
I0809 14:29:57.411502 15212 layer_factory.hpp:76] Creating layer lstm_output
I0809 14:29:57.411548 15212 net.cpp:111] Creating Layer lstm_output
I0809 14:29:57.411557 15212 net.cpp:478] lstm_output <- lstm_output_reshape
I0809 14:29:57.411569 15212 net.cpp:434] lstm_output -> lstm_output
I0809 14:29:57.411641 15212 net.cpp:156] Setting up lstm_output
I0809 14:29:57.411651 15212 net.cpp:164] Top shape: 1 256 25 25 (160000)
I0809 14:29:57.411658 15212 layer_factory.hpp:76] Creating layer fc
I0809 14:29:57.411682 15212 net.cpp:111] Creating Layer fc
I0809 14:29:57.411689 15212 net.cpp:478] fc <- lstm_output
I0809 14:29:57.411700 15212 net.cpp:434] fc -> fc
I0809 14:29:57.414216 15212 net.cpp:156] Setting up fc
I0809 14:29:57.414273 15212 net.cpp:164] Top shape: 1 512 25 25 (320000)
I0809 14:29:57.414327 15212 layer_factory.hpp:76] Creating layer relu_fc
I0809 14:29:57.414360 15212 net.cpp:111] Creating Layer relu_fc
I0809 14:29:57.414391 15212 net.cpp:478] relu_fc <- fc
I0809 14:29:57.414423 15212 net.cpp:420] relu_fc -> fc (in-place)
I0809 14:29:57.414458 15212 net.cpp:156] Setting up relu_fc
I0809 14:29:57.414486 15212 net.cpp:164] Top shape: 1 512 25 25 (320000)
I0809 14:29:57.414515 15212 layer_factory.hpp:76] Creating layer fc_relu_fc_0_split
I0809 14:29:57.414542 15212 net.cpp:111] Creating Layer fc_relu_fc_0_split
I0809 14:29:57.414566 15212 net.cpp:478] fc_relu_fc_0_split <- fc
I0809 14:29:57.414599 15212 net.cpp:434] fc_relu_fc_0_split -> fc_relu_fc_0_split_0
I0809 14:29:57.414630 15212 net.cpp:434] fc_relu_fc_0_split -> fc_relu_fc_0_split_1
I0809 14:29:57.414661 15212 net.cpp:434] fc_relu_fc_0_split -> fc_relu_fc_0_split_2
I0809 14:29:57.414693 15212 net.cpp:156] Setting up fc_relu_fc_0_split
I0809 14:29:57.414721 15212 net.cpp:164] Top shape: 1 512 25 25 (320000)
I0809 14:29:57.414744 15212 net.cpp:164] Top shape: 1 512 25 25 (320000)
I0809 14:29:57.414768 15212 net.cpp:164] Top shape: 1 512 25 25 (320000)
I0809 14:29:57.414790 15212 layer_factory.hpp:76] Creating layer rpn_cls_score
I0809 14:29:57.414821 15212 net.cpp:111] Creating Layer rpn_cls_score
I0809 14:29:57.414846 15212 net.cpp:478] rpn_cls_score <- fc_relu_fc_0_split_0
I0809 14:29:57.414878 15212 net.cpp:434] rpn_cls_score -> rpn_cls_score
I0809 14:29:57.415199 15212 net.cpp:156] Setting up rpn_cls_score
I0809 14:29:57.415231 15212 net.cpp:164] Top shape: 1 20 25 25 (12500)
I0809 14:29:57.415261 15212 layer_factory.hpp:76] Creating layer rpn_cls_score_rpn_cls_score_0_split
I0809 14:29:57.415288 15212 net.cpp:111] Creating Layer rpn_cls_score_rpn_cls_score_0_split
I0809 14:29:57.415313 15212 net.cpp:478] rpn_cls_score_rpn_cls_score_0_split <- rpn_cls_score
I0809 14:29:57.415341 15212 net.cpp:434] rpn_cls_score_rpn_cls_score_0_split -> rpn_cls_score_rpn_cls_score_0_split_0
I0809 14:29:57.415371 15212 net.cpp:434] rpn_cls_score_rpn_cls_score_0_split -> rpn_cls_score_rpn_cls_score_0_split_1
I0809 14:29:57.415402 15212 net.cpp:156] Setting up rpn_cls_score_rpn_cls_score_0_split
I0809 14:29:57.415429 15212 net.cpp:164] Top shape: 1 20 25 25 (12500)
I0809 14:29:57.415453 15212 net.cpp:164] Top shape: 1 20 25 25 (12500)
I0809 14:29:57.415477 15212 layer_factory.hpp:76] Creating layer rpn_cls_score_reshape
I0809 14:29:57.415511 15212 net.cpp:111] Creating Layer rpn_cls_score_reshape
I0809 14:29:57.415537 15212 net.cpp:478] rpn_cls_score_reshape <- rpn_cls_score_rpn_cls_score_0_split_0
I0809 14:29:57.415565 15212 net.cpp:434] rpn_cls_score_reshape -> rpn_cls_score_reshape
I0809 14:29:57.415599 15212 net.cpp:156] Setting up rpn_cls_score_reshape
I0809 14:29:57.415627 15212 net.cpp:164] Top shape: 1 2 250 25 (12500)
I0809 14:29:57.415650 15212 layer_factory.hpp:76] Creating layer rpn_cls_score_reshape_rpn_cls_score_reshape_0_split
I0809 14:29:57.415679 15212 net.cpp:111] Creating Layer rpn_cls_score_reshape_rpn_cls_score_reshape_0_split
I0809 14:29:57.415705 15212 net.cpp:478] rpn_cls_score_reshape_rpn_cls_score_reshape_0_split <- rpn_cls_score_reshape
I0809 14:29:57.415732 15212 net.cpp:434] rpn_cls_score_reshape_rpn_cls_score_reshape_0_split -> rpn_cls_score_reshape_rpn_cls_score_reshape_0_split_0
I0809 14:29:57.415762 15212 net.cpp:434] rpn_cls_score_reshape_rpn_cls_score_reshape_0_split -> rpn_cls_score_reshape_rpn_cls_score_reshape_0_split_1
I0809 14:29:57.415793 15212 net.cpp:156] Setting up rpn_cls_score_reshape_rpn_cls_score_reshape_0_split
I0809 14:29:57.415820 15212 net.cpp:164] Top shape: 1 2 250 25 (12500)
I0809 14:29:57.415844 15212 net.cpp:164] Top shape: 1 2 250 25 (12500)
I0809 14:29:57.415868 15212 layer_factory.hpp:76] Creating layer rpn_bbox_pred
I0809 14:29:57.415900 15212 net.cpp:111] Creating Layer rpn_bbox_pred
I0809 14:29:57.415925 15212 net.cpp:478] rpn_bbox_pred <- fc_relu_fc_0_split_1
I0809 14:29:57.415951 15212 net.cpp:434] rpn_bbox_pred -> rpn_bbox_pred
I0809 14:29:57.416155 15212 net.cpp:156] Setting up rpn_bbox_pred
I0809 14:29:57.416167 15212 net.cpp:164] Top shape: 1 20 25 25 (12500)
I0809 14:29:57.416177 15212 layer_factory.hpp:76] Creating layer rpn_sr_pred
I0809 14:29:57.416188 15212 net.cpp:111] Creating Layer rpn_sr_pred
I0809 14:29:57.416193 15212 net.cpp:478] rpn_sr_pred <- fc_relu_fc_0_split_2
I0809 14:29:57.416226 15212 net.cpp:434] rpn_sr_pred -> rpn_sr_pred
I0809 14:29:57.416360 15212 net.cpp:156] Setting up rpn_sr_pred
I0809 14:29:57.416371 15212 net.cpp:164] Top shape: 1 10 25 25 (6250)
I0809 14:29:57.416381 15212 layer_factory.hpp:76] Creating layer rpn_data
I0809 14:29:57.418275 15212 net.cpp:111] Creating Layer rpn_data
I0809 14:29:57.418294 15212 net.cpp:478] rpn_data <- rpn_cls_score_rpn_cls_score_0_split_1
I0809 14:29:57.418303 15212 net.cpp:478] rpn_data <- gt_boxes
I0809 14:29:57.418310 15212 net.cpp:478] rpn_data <- im_info
I0809 14:29:57.418355 15212 net.cpp:478] rpn_data <- side_pos
I0809 14:29:57.418476 15212 net.cpp:434] rpn_data -> rpn_labels
I0809 14:29:57.418493 15212 net.cpp:434] rpn_data -> rpn_bbox_targets
I0809 14:29:57.418519 15212 net.cpp:434] rpn_data -> rpn_bbox_inside_weights
I0809 14:29:57.418530 15212 net.cpp:434] rpn_data -> rpn_bbox_outside_weights
I0809 14:29:57.418551 15212 net.cpp:434] rpn_data -> rpn_sr_targets
I0809 14:29:57.418562 15212 net.cpp:434] rpn_data -> rpn_sr_inside_weights
I0809 14:29:57.418586 15212 net.cpp:434] rpn_data -> rpn_sr_outside_weights
I0809 14:29:57.419087 15212 net.cpp:156] Setting up rpn_data
I0809 14:29:57.419103 15212 net.cpp:164] Top shape: 1 1 250 25 (6250)
I0809 14:29:57.419111 15212 net.cpp:164] Top shape: 1 20 25 25 (12500)
I0809 14:29:57.419117 15212 net.cpp:164] Top shape: 1 20 25 25 (12500)
I0809 14:29:57.419143 15212 net.cpp:164] Top shape: 1 20 25 25 (12500)
I0809 14:29:57.419152 15212 net.cpp:164] Top shape: 1 10 25 25 (6250)
I0809 14:29:57.419158 15212 net.cpp:164] Top shape: 1 10 25 25 (6250)
I0809 14:29:57.419173 15212 net.cpp:164] Top shape: 1 10 25 25 (6250)
I0809 14:29:57.419180 15212 layer_factory.hpp:76] Creating layer rpn_labels_rpn_data_0_split
I0809 14:29:57.419199 15212 net.cpp:111] Creating Layer rpn_labels_rpn_data_0_split
I0809 14:29:57.419206 15212 net.cpp:478] rpn_labels_rpn_data_0_split <- rpn_labels
I0809 14:29:57.419216 15212 net.cpp:434] rpn_labels_rpn_data_0_split -> rpn_labels_rpn_data_0_split_0
I0809 14:29:57.419229 15212 net.cpp:434] rpn_labels_rpn_data_0_split -> rpn_labels_rpn_data_0_split_1
I0809 14:29:57.419242 15212 net.cpp:156] Setting up rpn_labels_rpn_data_0_split
I0809 14:29:57.419258 15212 net.cpp:164] Top shape: 1 1 250 25 (6250)
I0809 14:29:57.419265 15212 net.cpp:164] Top shape: 1 1 250 25 (6250)
I0809 14:29:57.419271 15212 layer_factory.hpp:76] Creating layer rpn_loss_cls
I0809 14:29:57.419292 15212 net.cpp:111] Creating Layer rpn_loss_cls
I0809 14:29:57.419299 15212 net.cpp:478] rpn_loss_cls <- rpn_cls_score_reshape_rpn_cls_score_reshape_0_split_0
I0809 14:29:57.419306 15212 net.cpp:478] rpn_loss_cls <- rpn_labels_rpn_data_0_split_0
I0809 14:29:57.419317 15212 net.cpp:434] rpn_loss_cls -> rpn_cls_loss
I0809 14:29:57.419335 15212 layer_factory.hpp:76] Creating layer rpn_loss_cls
I0809 14:29:57.419428 15212 net.cpp:156] Setting up rpn_loss_cls
I0809 14:29:57.419438 15212 net.cpp:164] Top shape: (1)
I0809 14:29:57.419445 15212 net.cpp:169]     with loss weight 1
I0809 14:29:57.419463 15212 layer_factory.hpp:76] Creating layer rpn_cls_prob
I0809 14:29:57.419488 15212 net.cpp:111] Creating Layer rpn_cls_prob
I0809 14:29:57.419495 15212 net.cpp:478] rpn_cls_prob <- rpn_cls_score_reshape_rpn_cls_score_reshape_0_split_1
I0809 14:29:57.419505 15212 net.cpp:434] rpn_cls_prob -> rpn_cls_prob
I0809 14:29:57.419543 15212 net.cpp:156] Setting up rpn_cls_prob
I0809 14:29:57.419553 15212 net.cpp:164] Top shape: 1 2 250 25 (12500)
I0809 14:29:57.419569 15212 layer_factory.hpp:76] Creating layer rpn_accuracy_cls
I0809 14:29:57.419582 15212 net.cpp:111] Creating Layer rpn_accuracy_cls
I0809 14:29:57.419589 15212 net.cpp:478] rpn_accuracy_cls <- rpn_cls_prob
I0809 14:29:57.419605 15212 net.cpp:478] rpn_accuracy_cls <- rpn_labels_rpn_data_0_split_1
I0809 14:29:57.419615 15212 net.cpp:434] rpn_accuracy_cls -> rpn_cls_accuracy
…
